trillnet_weights_and_E.pth (torch, 22042 bytes, 21 tensors)

gcn.weight f4 [9, 9]
000000 55 a1 e3 3e af 14 85 3d 79 7f c8 3d 43 bf 35 be
       0.44459024 0.06498086 0.097899385 -0.17748742
000010 66 14 5d be de 09 48 3e 87 47 a3 3d 78 0e 8a 3e
       -0.21589813 0.19535014 0.07972627 0.26964164
000020 b6 ba d7 3d f3 da 97 be e1 25 17 be 79 8c 84 3e
       0.10533659 -0.29659232 -0.14760543 0.25888422
000030 8f 3b fd bd c6 e8 05 bc 5a 32 91 be 59 cc 52 3e
       -0.123648755 -0.008173173 -0.28358728 0.20585765
000040 7b c4 08 bd 96 2c 40 3d f9 6d 08 3d 95 9b 42 3e
       -0.033390503 0.04691752 0.033308003 0.19004662
000050 b1 d4 f3 bd 3c 03 ca be 29 08 bf 3e 2e 9a bc 3e
       -0.11905802 -0.39455593 0.37310913 0.3683638
000060 5b 85 34 be 86 54 db 3c 7d 31 6a 3e 0d 4b a0 bd
       -0.17628996 0.026773702 0.22870441 -0.07826815
000070 0a fb 88 3e df 2e 5f 3e c5 e0 6a be 1b 2c 69 3e
       0.26754028 0.21795224 -0.22937305 0.22770731
000080 82 0c 80 bd c5 ff 91 bc 4f 86 36 3e 8f 65 8a 3e
       -0.06252386 -0.017822156 0.17824672 0.27030608
000090 6a 8b bc bd 45 f8 af 3e 8a 8b 61 bd 9a f5 00 3e
       -0.092062786 0.34369102 -0.055064715 0.1259369
0000a0 da ea d3 bd b3 cc e7 bd c6 87 7b 3d 58 07 28 be
       -0.10347529 -0.1131834 0.06140878 -0.16409051
0000b0 28 84 36 3e 39 78 ea bd f3 2e d0 bd bb 3c 92 3c
       0.17823851 -0.11448712 -0.10165205 0.017851224
0000c0 e3 a8 19 3e 63 ea 20 3e 2d 9f 20 3e d2 8c 37 3e
       0.15005831 0.15714411 0.1568572 0.17924812
0000d0 09 ca c4 be 14 88 fe 3d 4a ca a1 3e 45 be 62 bd
       -0.3843539 0.124282986 0.31599647 -0.055357236
0000e0 89 79 0f bc ee d9 75 be d9 42 5b 3d c8 12 3b be
       -0.008757004 -0.24008915 0.053530548 -0.18268883
0000f0 01 df 9d 3e 23 cc 32 3e 8b 64 f4 3a ea 48 16 be
       0.308342 0.17460684 0.0018645687 -0.14676252
000100 a9 66 28 bd 75 eb a2 3d 4c 93 38 3e 7b ef ce 3d
       -0.04111353 0.07955066 0.1802494 0.10104271
000110 b4 9f 28 be 60 62 86 3e 78 b8 23 3e d5 87 82 be
       -0.16467172 0.2624693 0.15988338 -0.25494257
000120 1f f7 12 bb da 5b 9c be 5f e2 b3 bd df c1 6a be
       -0.0022425128 -0.30538827 -0.08783411 -0.22925518
000130 23 e8 b9 be 02 75 82 be b9 7d 5f 3e 75 ec a1 be
       -0.3630992 -0.25479895 0.21825303 -0.31625715
000140 36 f5 57 bc
       -0.013181021

gcn.bias f4 [9]
000000 47 18 61 be 83 15 9c be f2 df ce be c7 10 12 3e
       -0.21981917 -0.30485162 -0.40405232 0.14264213
000010 3b 85 b2 3d 40 fc 1d be ac 6f 52 3d d0 8d cd be
       0.08716818 -0.15428257 0.05137603 -0.40147257
000020 47 d3 15 3e
       0.14631377

MaskedMultiheadSelfAttention.query.weight f4 [18, 18]
000000 9e 5f a8 be db 2f d9 bd b6 39 48 bd ae 8f 4a bd
       -0.3288545 -0.10604831 -0.048883162 -0.04945343
000010 cd 24 a5 3d b6 0d db bc 88 87 25 3b 56 7e 51 be
       0.0806366 -0.026739936 0.0025257785 -0.2045835
000020 df b2 06 3f d1 a9 7f 3e 83 87 90 bd fc 1e 03 3b
       0.52616686 0.24967124 -0.07057097 0.0020007482
000030 e6 db c6 be 85 3a 95 3e a0 83 77 bd 3c 70 c7 bd
       -0.38839644 0.2914621 -0.06042826 -0.09738204
000040 d5 87 81 be 11 d4 9b bc 92 5d 63 be bb 8d 76 bd
       -0.25298944 -0.01902202 -0.22203663 -0.06019376
000050 ae 7f de bd dd 07 e6 bd 8f 4f 98 3d 85 20 34 be
       -0.10864197 -0.112319686 0.074370496 -0.1759053
000060 a6 eb 6a 3d 2e e9 25 be 9a 41 e9 3d 4f 87 a6 3d
       0.057353638 -0.16202232 0.11389466 0.08131277
000070 11 00 01 3d 10 a6 1d 3e e3 4d 95 bd 5b fa 80 be
       0.031494204 0.15395379 -0.07290246 -0.25191006
000080 e9 e9 fd bd df a2 3f 3d ed 5d 6f be d0 29 54 be
       -0.123981304 0.046786185 -0.23375674 -0.20719075
000090 12 8a a9 be 38 51 8f 3e 44 a5 0f 3e 0f 86 70 be
       -0.33113152 0.27991652 0.14027888 -0.2348864
0000a0 9a b4 a8 bc 98 27 21 be 47 9a 17 be c4 ac 2c be
       -0.02059393 -0.1573776 -0.14804946 -0.1686278
0000b0 ff 01 13 3f 91 d2 bb 3c 64 fa 2a be 9c ce a5 be
       0.5742492 0.022927554 -0.16697079 -0.32384193
0000c0 b5 21 85 bc d7 e3 14 3d 74 29 11 3e 25 90 94 bc
       -0.016251424 0.036350098 0.1417597 -0.01813514
0000d0 be bd 83 3d 0f b1 74 bd a3 1f 01 3d f5 27 89 be
       0.06432675 -0.05973917 0.03152431 -0.26788297
0000e0 61 62 20 be bc f3 e6 bd d1 f8 1d be 53 80 9b 3d
       -0.15662529 -0.112769574 -0.15426947 0.07592835
0000f0 d3 d9 39 be 0f 0a b7 3d 03 7e 70 bd 1c c5 89 bd
       -0.181495 0.089374654 -0.058713924 -0.06727049
000100 90 06 5f be e2 2e 88 be 0e d9 93 be 88 e4 05 3d
       -0.21779847 -0.2659827 -0.28876537 0.032688648
000110 e0 04 99 3e a3 c4 ae bb 93 90 55 3e 05 f4 70 bc
       0.29886532 -0.0053334995 0.20855932 -0.014706616
000120 9b 6e 9a bd 56 52 0a 3d 13 63 2d be c2 12 39 bb
       -0.075406276 0.033769928 -0.16932325 -0.002823994
000130 a7 29 7f 3d 56 ef 62 3e 57 88 48 be ce 01 a4 bd
       0.062295582 0.22161612 -0.1958326 -0.08008157
000140 f6 b7 12 3f cf c0 bd bd 1a a9 7c be 42 32 b9 be
       0.5731195 -0.09265291 -0.24673882 -0.36171156
000150 bc 8b 3c 3e d4 cf 34 3e 89 a3 84 3e 4f fb ff 3d
       0.1841268 0.17657405 0.25906017 0.12499105
000160 28 3a 90 bd 31 39 92 3e 18 24 4c 3c 2e 95 f2 bd
       -0.070423424 0.2855926 0.012459777 -0.1184486
000170 e4 3b 42 be 10 e1 9a 3b 44 5d 85 be cd bf bc bd
       -0.18968159 0.0047265366 -0.2604772 -0.092162706
000180 7d 42 46 be 87 75 78 3d ef 04 22 3f 7a f4 40 be
       -0.19361301 0.060658958 0.6328878 -0.1884326
000190 5e b3 f9 bd 21 0a ae be 43 c3 9f be 90 5b 08 3d
       -0.12192415 -0.33992103 -0.3120366 0.033290446
0001a0 6e 0f 62 be 1a 32 3a 3e 4c 5b 80 be f2 a5 bf bd
       -0.22076198 0.18183175 -0.25069654 -0.093578234
0001b0 77 be 9f 3d f3 07 3c bc 94 9b 92 3e 7c 8e c6 bd
       0.078 -0.011476505 0.28634322 -0.096951455
0001c0 89 30 62 bd 1f a0 4c 3e 76 e8 01 3e ec a0 5c be
       -0.055222068 0.19982956 0.12686333 -0.21545762
0001d0 e9 46 77 be 91 a4 1b 3d 36 fe 5f 3e f2 22 1a 3e
       -0.24148144 0.03799874 0.21874318 0.15052393
0001e0 5c 50 16 be b9 4c 6c 3d a2 6c 9b bb 8c 96 13 3e
       -0.14679092 0.057690356 -0.0047431746 0.14412898
0001f0 1c 57 7f bd c3 6a b2 bd df c2 bb be 25 42 96 be
       -0.062338933 -0.087117694 -0.36672112 -0.2934734
000200 d1 19 b6 3c 05 3b 42 be 20 84 89 bd 97 c7 bf bd
       0.022229107 -0.18967827 -0.06714654 -0.093642406
000210 39 f2 06 bf ae 57 50 be d8 57 23 3d 70 a7 e3 bd
       -0.5271335 -0.20345947 0.039878696 -0.111159205
000220 59 5d 81 be 57 ad 02 bf 68 28 8a bd 1b 49 bf be
       -0.2526653 -0.51045746 -0.06745988 -0.37360463
000230 b0 4d 27 3e 49 f8 8b be a1 c9 a2 3d fc e6 b2 bd
       0.16338229 -0.27337864 0.07948614 -0.08735463
000240 1a ff 82 bc 55 e5 e8 bc da d5 05 be 1e b8 79 3e
       -0.015990783 -0.028429667 -0.13069859 0.24386641
000250 3b 21 e7 3a 8f ac 15 be d7 8a 23 3e 41 59 90 3d
       0.0017633805 -0.14616607 0.15970932 0.07048274
000260 f1 22 fe be c9 82 fa bc 13 25 ec bd 2b 11 7a 3e
       -0.49636033 -0.030579941 -0.11530509 0.24420612
000270 3d 2a b9 3d 01 6c 4f be 1c 35 1c be a8 da 46 be
       0.090412594 -0.20256044 -0.15254635 -0.19419348
000280 9f c2 45 be 12 23 3a be 7d d8 9e bd da 0e c3 bd
       -0.19312523 -0.18177441 -0.077561356 -0.09524317
000290 54 f8 8a bd ef 28 5c be 17 d5 46 3e 94 98 ac bb
       -0.06785646 -0.2149999 0.19417225 -0.005267212
0002a0 5d ee 99 be e8 88 22 be bc 17 ae be bc 74 b3 bd
       -0.3006467 -0.15872538 -0.34002483 -0.087625
0002b0 ea 53 1d 3b da b0 4a be c0 c7 91 3d b4 a9 86 be
       0.0024006316 -0.19794026 0.071181774 -0.26301348
0002c0 58 85 e4 bd c8 78 69 3e 48 40 d9 3d 4d dd 8d be
       -0.11158246 0.2279998 0.10607964 -0.27707902
0002d0 70 4b 01 3e db 0e 5a 3e 0a 45 a2 bd a9 63 48 be
       0.12626433 0.2129473 -0.079233244 -0.19569267
0002e0 e6 88 48 be 45 75 0b 3e a8 52 f9 3c 4a 47 74 3d
       -0.19583473 0.13618954 0.030434921 0.0596383
0002f0 a4 15 9a 3e e6 88 d4 3d 9a 54 63 be f3 f9 b3 3e
       0.30094635 0.10377674 -0.22200242 0.35151634
000300 6c 13 23 3d 58 b2 0d bd 60 58 f1 3d 9e 2b b7 bd
       0.039813444 -0.03459391 0.11784434 -0.08943866
000310 2a d8 76 be fe f7 b8 3e ad 59 c7 3e 02 dc 8c 3c
       -0.24105898 0.36126703 0.38935605 0.017194752
000320 e2 de 53 be 3a 86 4d bd ed 1f 20 bc 40 f0 c4 bd
       -0.20690492 -0.050176837 -0.009773237 -0.096161366
000330 2e 5c 4f bd 41 62 cb 3d 82 f9 8c 3e 54 df a1 3e
       -0.05062502 0.0993085 0.2753411 0.31615698
000340 2d 9a 0d 3e 62 75 e9 be 43 74 d8 3e 12 d9 bb bd
       0.13828345 -0.45597368 0.422762 -0.09172262
000350 86 cd 4b 3d 50 26 e8 bd ab dd 80 3e b0 d4 aa 3e
       0.04975655 -0.113354325 0.2516912 0.33365393
000360 18 27 a4 3d b9 2b 85 3e 9a 8a 9f be 83 c1 5c 3e
       0.08015269 0.2600992 -0.31160432 0.21558194
000370 cd 01 e8 3d c5 59 47 bd 8f 1b 0f be 37 45 40 3d
       0.113284685 -0.048669595 -0.13975357 0.04694101
000380 5e c0 ae be e2 ed 98 be ac 53 ae 3e ea db 15 bd
       -0.3413114 -0.2986899 0.34048212 -0.03658668
000390 05 ab b3 3d b5 5d a4 be 57 ff 3d 3e 20 a6 17 3d
       0.08772854 -0.32102743 0.18554436 0.037023664
0003a0 72 b0 ea 3d eb a3 dd 3d 7c 8e 5d be 9e d0 02 bd
       0.114594355 0.108222805 -0.21636385 -0.031937234
0003b0 2a 6a a3 3d 5f 6b 30 be 63 bc c9 bc af 5b 03 3e
       0.079792336 -0.17228459 -0.024625963 0.12827943
0003c0 15 d4 85 be 32 61 5a bd e3 f5 82 3d e9 74 eb bd
       -0.26138368 -0.05331535 0.063945554 -0.11496908
0003d0 a3 dd 51 3e 1c 72 0a bf 5c 64 51 3e 41 50 13 3d
       0.20494704 -0.5408037 0.2044844 0.035965208
0003e0 60 d2 a6 3e a7 b8 15 3e c2 a6 7d 3e 39 72 ee 3d
       0.32582378 0.1462122 0.24770644 0.1164288
0003f0 88 ae d0 3d 33 8c 3e 3d b8 e5 2d be ed 57 46 be
       0.10189539 0.046520423 -0.16982162 -0.19369479

MaskedMultiheadSelfAttention.query.bias f4 [18]
000000 70 6d 79 3e 77 9f df 3d ef da e1 bd b4 9d 0e be
       0.24358153 0.109190874 -0.110280864 -0.13927346
000010 a2 c4 37 3d 01 1a 8d be 2a 57 e7 3d 65 55 32 be
       0.044865258 -0.27558902 0.11295922 -0.17415388
000020 3d fc 8d 3d a1 15 00 be cd 9c bb bc e1 02 5b 3e
       0.06932876 -0.12508251 -0.022901917 0.21387817
000030 09 c9 00 3e 0e ab 97 3d bb df ec 3d 53 90 30 be
       0.12576689 0.07405673 0.11566111 -0.17242555
000040 02 c6 ac 3c fc d5 12 3e
       0.021090511 0.14339441

MaskedMultiheadSelfAttention.key.weight f4 [18, 18]
000000 4b 32 5d 3e d4 8f f7 3d 8b 5c 8f bc b6 67 0e 3e
       0.21601216 0.1208798 -0.017500183 0.1390675
000010 0f 48 88 bd 9a 85 f7 3d 76 0a 80 be 13 fe 5f 3e
       -0.06654369 0.12086029 -0.2500798 0.21874265
000020 0a 4e a4 3d c1 ac 2e 3e b0 23 0b 3e ef 26 a3 bd
       0.08022697 0.17058088 0.13587832 -0.0796641
000030 90 f2 39 3e 7d 72 14 be 92 df 6f 3e 5f 96 87 bc
       0.18158937 -0.14496799 0.23425129 -0.016551195
000040 1a 1e 7b 3e 77 7b 2a bc 91 10 d6 bd dd 68 55 3d
       0.24523202 -0.010405413 -0.104523785 0.05210196
000050 c0 a9 77 3c df 01 45 3e 4b 75 5e bd 58 5e a6 3e
       0.015116155 0.19238995 -0.054311078 0.32493854
000060 35 f4 ae bc 37 df 6f 3e d4 37 3e 3e 43 d0 0a be
       -0.021356681 0.23424993 0.18575984 -0.13556008
000070 47 6b 34 3e 91 f1 80 3d 58 ce 5d 3e ae cf e3 3d
       0.17619048 0.06296075 0.21660745 0.11123596
000080 0a c6 2f be d4 7b a1 3d b1 a4 b2 bd 56 2b 29 3e
       -0.1716539 0.078849465 -0.08722819 0.16520438
000090 42 cf a9 3e 75 a2 f3 3d 56 38 ae 3e 02 87 ab be
       0.33165938 0.118962206 0.34027356 -0.3350144
0000a0 a7 1f 40 bd be 80 0d 3e 04 28 70 3e d7 a6 e8 bd
       -0.046905186 0.13818642 0.23452765 -0.11359947
0000b0 25 09 10 be ac cf c6 3c 1a 10 36 bd 7a bd 88 bd
       -0.14065988 0.024268948 -0.04444895 -0.06676765
0000c0 fb 90 5e bc 9e e1 23 be b8 02 0f be 8f 0c 40 be
       -0.013584371 -0.16004035 -0.13965881 -0.1875479
0000d0 a3 51 00 bd 2d ee 6f 3e 84 8e 41 bd e3 26 2d bd
       -0.031327855 0.234307 -0.047255054 -0.042273413
0000e0 d0 4c 45 3e d8 8d 2a be 6b e3 83 be 9a 3b c2 3d
       0.19267583 -0.16655672 -0.25759444 0.09484024
0000f0 83 f0 6c 3e 48 d4 dc 3c 8c 5c c4 bc 1e 0f c1 3d
       0.23138623 0.026956692 -0.023969911 0.094267115
000100 6a 43 81 be 6a 54 49 be c3 ef 6e be 9c 62 83 3c
       -0.25246745 -0.19661108 -0.2333365 0.016038232
000110 80 30 9e be c7 47 e4 bd aa 9d 5c be d9 03 32 bd
       -0.30896378 -0.11146503 -0.21544519 -0.0434607
000120 d1 22 91 bc 9e 4e 87 3e ae 27 a7 bd 6f c9 83 3a
       -0.017716797 0.26427168 -0.08161865 0.0010054539
000130 9f 0d 9b be fd b7 12 3e a4 56 f1 3c 8a 28 5e 3d
       -0.3028383 0.14327998 0.029460259 0.05423788
000140 31 a9 b7 bd c5 bc 61 be ae 86 8e be 40 2c 3f 3b
       -0.089678176 -0.22044666 -0.27837127 0.0029170662
000150 b9 dc 62 be f5 57 6b bd 17 a1 8a 3c bd cd 8d 3c
       -0.22154512 -0.05745693 0.016922517 0.017310018
000160 c0 03 d7 3d 56 ff 14 3e 34 20 0e 3e db d0 2f 3e
       0.10498762 0.14550528 0.13879472 0.17169516
000170 38 f2 8d bc bb a7 36 be d7 04 71 be 88 e7 49 3d
       -0.017327413 -0.17837422 -0.23537003 0.04929307
000180 5a 4b d7 bd 5c 60 ec 3d d6 ba 3b 3e 66 18 ed 3b
       -0.10512419 0.115418166 0.18332991 0.0072355745
000190 2a eb e5 bb ff bb 32 be ac 79 2a 3e be 8d 83 be
       -0.007016559 -0.17454527 0.16647977 -0.25694078
0001a0 a7 0a 12 3e 26 48 6f 3d 1e 35 c1 bc 80 e0 cf 3e
       0.14261876 0.058418415 -0.023584899 0.40600967
0001b0 e2 75 0e be dd e6 68 be a8 8f 02 be 9a db 03 3c
       -0.13912156 -0.22744317 -0.12750113 0.008047963
0001c0 78 b6 7b 3e a0 c9 26 bd 40 d7 fa bd 2a 71 f9 3c
       0.24581325 -0.04071963 -0.12248087 0.030449469
0001d0 aa c0 7d bc a4 8a 17 3d 69 f3 90 3e e3 18 56 bd
       -0.015487829 0.036997452 0.28310707 -0.052269828
0001e0 8c 44 86 bb dc ea 0d 3e 10 8b a3 3e aa 40 1e bd
       -0.004097527 0.13859123 0.31942034 -0.038635887
0001f0 68 9c 38 3e f2 d3 36 be ea c0 d1 3e 85 5f c7 bd
       0.18028414 -0.17854288 0.40967494 -0.09735016
000200 11 22 8e 3e 5b 4c c3 be 54 c8 9f be e5 6d db 3e
       0.27760366 -0.38144192 -0.31207526 0.4285728
000210 10 3a cc 3e 6f 65 70 be bf 2e ae 3e 10 6f f9 bd
       0.39888048 -0.23476194 0.3402004 -0.121793866
000220 82 99 97 be db 4b d8 bb 6f 91 d9 3b 85 64 a0 bd
       -0.29609305 -0.0066008396 0.0066396515 -0.078316726
000230 07 46 86 be ca 0c 16 3e 03 4e 53 3b 5d 80 fc 3e
       -0.26225302 0.14653316 0.0032242544 0.49316683
000240 99 2c 8d be dd a1 7d 3c 82 a4 20 3e 35 b2 4a 3e
       -0.27573088 0.015480486 0.15687755 0.19794543
000250 da 39 04 bd e0 e1 37 3e 72 6e 84 3d 3d 99 90 3e
       -0.032281734 0.17957258 0.06466378 0.28241912
000260 44 85 85 be fe 01 76 be 62 7d db 3d f3 40 43 3e
       -0.26078236 -0.24024197 0.10717274 0.19067745
000270 3f 82 ec 3d 8f 06 d8 3d e0 9d 5e 3e a1 dc 74 bd
       0.1154828 0.10548126 0.21739912 -0.05978072
000280 3e 94 61 be fc 49 ab 3d 01 bf aa 3e a3 0d 12 3e
       -0.22029206 0.08363721 0.3334885 0.14263014
000290 22 c4 89 be 0a 7c 1a 3e 78 e6 13 3e 3c 7b 96 3e
       -0.2690745 0.1508638 0.14443386 0.29390895
0002a0 55 54 46 be 98 a4 2b bd c0 40 87 3d 23 9f 19 be
       -0.19368108 -0.041905016 0.06604147 -0.15002112
0002b0 dd 78 94 bd a8 8f 0b 3e 60 93 4f 3e 43 a1 d5 3d
       -0.07249615 0.1362902 0.20271063 0.10431149
0002c0 86 a5 58 3e b6 69 f0 3d fd ee 28 3e 31 e5 49 3e
       0.21156892 0.11738913 0.16497417 0.19716336
0002d0 2b 93 66 be 39 9b 5a bd f1 79 26 3e 86 68 da 3e
       -0.22517078 -0.053370688 0.16257454 0.4265787
0002e0 62 e1 1e be c7 a6 44 be ae 65 a8 3c 3a e5 18 be
       -0.15515664 -0.19204246 0.020556297 -0.14931193
0002f0 55 70 ca be 7c 61 24 3e 00 74 52 3e 68 35 44 3d
       -0.39538828 0.16052812 0.20552063 0.047902495
000300 2a 50 1e 3d fe 47 df 3d 27 e5 b3 bc c5 a8 5e be
       0.03865067 0.10902403 -0.021959854 -0.21744068
000310 aa ea b4 be 95 03 56 be ac 96 79 be c3 2c 24 3a
       -0.35335284 -0.20899804 -0.24373883 0.00062627735
000320 b7 2c f3 be 04 d7 14 3d b7 ad 48 3e 5c 4d 99 be
       -0.47495052 0.036337867 0.19597517 -0.29941833
000330 91 29 e2 be b6 77 c3 3d 73 17 26 be 6b 0a c6 bd
       -0.44172338 0.095443174 -0.16219883 -0.09669956
000340 df b9 79 3e 50 3a 38 be 19 d3 00 be 2e 42 75 be
       0.2438731 -0.17990994 -0.12580527 -0.23951027
000350 b8 36 bb 3e 58 2f 61 be 82 80 8e 3d b3 7c c1 be
       0.36565185 -0.21990716 0.06958105 -0.3779045
000360 cf d8 55 3e 90 f4 93 bd 5c e2 0e be 57 69 82 be
       0.20883487 -0.07224381 -0.13953537 -0.25470993
000370 10 8f d3 3c fd 64 6f 3e ba 06 3d 3e a3 f6 db 3d
       0.025825053 0.23378368 0.18459597 0.107404016
000380 f7 33 6f bd 68 a4 a4 be 5b 98 8f be b9 3d a9 be
       -0.058399167 -0.32156682 -0.28045925 -0.33054903
000390 cb 25 f5 bd 8e e1 8b be 2c 00 cf 3d 71 dc 7f 3e
       -0.11970099 -0.27320522 0.10107455 0.24986435
0003a0 33 c0 2b 3e a9 8d 43 3e 75 59 24 be 01 4e 66 3e
       0.16772537 0.19097008 -0.1604975 0.22490694
0003b0 c8 e9 26 be ed 38 35 3e dc 1b 88 3c de bd a3 be
       -0.16300118 0.17697497 0.016614847 -0.31980795
0003c0 8b 57 53 bd 87 6d b0 bd fa 19 44 be 41 84 45 3d
       -0.05159716 -0.08614641 -0.19150534 0.04822183
0003d0 1d da 28 3e 51 e7 ca be 45 b6 fa 3c d2 77 21 be
       0.16489454 -0.39629605 0.030604491 -0.15768364
0003e0 5a c3 89 3e d9 90 f4 bc 2b ff ad 3e 80 f3 22 bd
       0.26906854 -0.029854225 0.3398374 -0.039783
0003f0 71 32 3d be cf f2 71 3d 21 64 a2 3e 25 0d 96 3d
       -0.18476273 0.05906945 0.31717017 0.07326726

MaskedMultiheadSelfAttention.key.bias f4 [18]
000000 9f c8 95 3d b9 64 95 bd f8 3a a4 3d 31 1c 7b 3c
       0.07313656 -0.07294602 0.0801906 0.015326546
000010 e1 f1 30 be 22 33 81 be d8 15 eb bd 46 71 50 be
       -0.1727977 -0.25234324 -0.11478776 -0.2035571
000020 91 f4 34 3e 01 7d 38 3e a1 c6 21 be 58 8d 46 bc
       0.1767142 0.18016435 -0.15798427 -0.01211866
000030 9b a7 c8 bd 20 39 2a 3e 9f 2f 02 be 30 2d 1d bd
       -0.09797593 0.16623354 -0.12713479 -0.038373172
000040 57 0f ee bd 0b c3 15 be
       -0.116240196 -0.14625184

MaskedMultiheadSelfAttention.value.weight f4 [18, 18]
000000 06 5b 40 3e b6 51 07 3e e3 25 49 3e 7a 71 de bd
       0.18784723 0.13214764 0.19643359 -0.10861488
000010 ec fc 67 3e e3 8f 16 be 5c 26 ba bd b8 41 15 be
       0.22655076 -0.14703326 -0.09089348 -0.14575851
000020 20 6e 28 be 23 09 e0 bd 4d f3 4f be a4 3f cd 3d
       -0.1644826 -0.10939243 -0.20307656 0.10021904
000030 9d ef 96 3d 90 57 64 3c 13 45 0f 3d 7c d6 ca 3d
       0.07369921 0.013936892 0.034977984 0.09904191
000040 84 bf 57 3e 45 a5 22 3e 78 b2 11 3e f3 29 94 3d
       0.21069151 0.15883358 0.14228237 0.07234564
000050 ff 2d 09 3e b2 d9 61 3e 78 84 8a 3e f4 bf 81 bd
       0.13396452 0.220557 0.2705419 -0.0633544
000060 0d e0 b9 bd b3 3c 1c 3e 2d 7d 81 3e 62 d3 38 be
       -0.090759374 0.1525753 0.25290814 -0.18049386
000070 03 ac 11 bc 24 fc 13 be 91 19 e0 bd c4 12 04 be
       -0.008891108 -0.14451653 -0.109423764 -0.12897784
000080 44 05 b2 bd f3 24 11 3d d4 49 ad bd 00 51 2a bd
       -0.086924106 0.03543563 -0.08461347 -0.041581154
000090 ff d6 2d be 6d e7 65 bd c3 a8 08 bd f5 17 23 bd
       -0.16976546 -0.056128908 -0.03336407 -0.03981777
0000a0 5d cb 15 be be 00 bf 3d f3 58 07 3e 88 98 07 3e
       -0.14628358 0.093263134 0.13217525 0.1324178
0000b0 c1 71 77 bd 11 0f 4b be 5f 77 b8 be 08 90 60 3d
       -0.06041122 -0.19829966 -0.36028573 0.05482486
0000c0 fa f6 17 be 7f 62 10 be a8 be 01 be 8e bc 5a 3c
       -0.14840308 -0.14100073 -0.12670386 0.013350619
0000d0 07 c0 27 3e 40 2f 69 3e c1 01 08 be 73 32 9c bd
       0.16381846 0.2277193 -0.13281919 -0.0762681
0000e0 f3 9e f2 3d dc 1a 30 3d e0 72 2a 3e 41 63 73 bd
       0.118467234 0.042994365 0.16645384 -0.059420828
0000f0 e2 3c 82 3e 0c 72 2c 3d d9 a4 00 3e 5d 40 6f bd
       0.25437075 0.04210095 0.12562884 -0.05841099
000100 13 94 16 3d 49 f4 00 be 3c b7 db 3b 07 ea 4d 3e
       0.03676231 -0.12593187 0.006705193 0.20108806
000110 7c ef 72 be 97 ca a5 bb c1 df 7d bc e9 31 54 be
       -0.23724169 -0.005059551 -0.015495242 -0.20722164
000120 9d 87 4c 3e 6c 8c 7c be 60 71 84 3d 66 96 39 3a
       0.19973607 -0.24662942 0.06466937 0.0007079601
000130 03 ab 44 3d 57 e2 6f 3b b7 23 ce bd b2 73 90 be
       0.048014652 0.0036603415 -0.10065406 -0.2821327
000140 21 29 0b 3e 80 4c f0 bc 36 28 22 bf 77 b5 fa bd
       0.13589908 -0.029333353 -0.6334261 -0.12241643
000150 dc 7f 33 3e a2 8d a9 be bc b4 48 be ee 51 23 be
       0.17529243 -0.3311587 -0.19600195 -0.15949222
000160 1d 8b 81 bd 68 45 a1 3d d2 b7 97 be 86 ff 52 be
       -0.06325362 0.07874566 -0.2963243 -0.20605287
000170 4e 86 c8 3c 8d af b8 3d 74 90 0d 3e f8 76 49 be
       0.024478104 0.09017859 0.13824636 -0.19674289
000180 20 2e 12 3e 67 0a 5c 3e e3 3a 67 be 99 ee 8e bd
       0.14275408 0.21488343 -0.22581057 -0.06979103
000190 4e 1d ea bb c0 e4 d9 bd a8 a5 1f be c4 03 69 3d
       -0.0071446067 -0.10639334 -0.15590537 0.056888357
0001a0 cb c7 e8 bd 7f 4c 65 3d b7 93 eb bc 7d d5 71 be
       -0.113662325 0.055981155 -0.02875696 -0.23616596
0001b0 64 3c 1d 3e 11 eb 28 3e cd 22 3a 3e 59 0a 3f 3e
       0.15355068 0.1649592 0.18177338 0.18656291
0001c0 02 7a b1 bd 5d b6 13 3e 7c a6 44 3e a5 6a 54 3e
       -0.08665849 0.14425035 0.19204134 0.20743807
0001d0 11 d6 95 3e 63 57 75 be c0 f5 dc be 7e e2 6e 3c
       0.29264882 -0.23959117 -0.43156242 0.014580367
0001e0 7a 1f 79 3e 2d d1 90 bd 15 6b 0a bd 3c e2 7e bd
       0.24328414 -0.07071147 -0.033793528 -0.062227473
0001f0 07 13 71 3d df f2 7e 3d 5c 40 20 be 16 b7 b6 3d
       0.058856037 0.06224334 -0.15649551 0.089216396
000200 86 96 6f 3d fd 5f 0e be f3 8c 03 3e a1 05 bf bd
       0.05849316 -0.13903804 0.12846737 -0.093272455
000210 fa cb 0a bd cf da 68 3b 4a 50 1c 3d 98 64 76 3b
       -0.033885933 0.003553081 0.038162507 0.003759658
000220 7a da 86 be 22 b0 16 3e 9d 5a ca 3d 6b aa 04 be
       -0.2633856 0.14715627 0.09880564 -0.12955634
000230 6a b9 3b be 8c df ef 3d 22 c7 94 be c1 6c 81 bd
       -0.18332449 0.1171256 -0.29058176 -0.06319571
000240 62 71 4c 3d e3 05 a7 bc 38 16 5d 3e 5f 2c 86 bd
       0.049912818 -0.02038855 0.21590507 -0.06551432
000250 55 20 6e 3d 4d 86 8a 3d c2 0b 4d 3e a7 44 8f bd
       0.058136303 0.06763897 0.20024016 -0.06995516
000260 b3 1a 22 be c1 33 85 bd 82 20 92 bd 07 72 a5 3d
       -0.15830497 -0.06504012 -0.071351066 0.080783896
000270 93 1e 3c be 1d c9 66 bd 83 ed a9 3d 4b b7 03 3e
       -0.18371038 -0.05634414 0.08297255 0.1286289
000280 55 4d 61 3e 78 02 a0 3c da b1 7b 3d 47 6d 8e be
       0.22002156 0.019532427 0.06144891 -0.27817747
000290 1b fa 50 3e bd d6 dc 3d 1e 4f c5 bd 85 68 2a 3e
       0.20407908 0.107831456 -0.09634231 0.16641434
0002a0 06 c7 72 3c ea 88 6d 3b 5e 64 77 be 08 a3 c9 3d
       0.014817959 0.0036244937 -0.24159381 0.09845549
0002b0 b0 82 ef 3d 54 bc 3a 3e 6e bc 4e be 92 b9 42 3e
       0.116948485 0.18235904 -0.20189068 0.19016102
0002c0 a0 2f ad bd ba 8f 4f be d1 74 c2 be 8b 9b 55 bd
       -0.084563494 -0.20269671 -0.3797975 -0.05215029
0002d0 05 1a 08 bb 49 41 9c 3d 3f bb 81 3d 5e 85 22 3c
       -0.0020767462 0.0762964 0.063345425 0.0099194925
0002e0 8c f6 a4 3d d7 2a 27 bd ba 49 86 bd fc 4f 62 3e
       0.080548376 -0.04081234 -0.06557031 0.22100824
0002f0 b3 32 fb 3d e6 3d 6d 3e 3a a5 04 3e 13 3e 50 3e
       0.122655295 0.23168144 0.12953654 0.2033618
000300 fa 4b 14 be 07 2a 8c 3e 12 ed 05 be 3d de 24 3e
       -0.14482108 0.27375814 -0.13078716 0.16100402
000310 84 f5 84 bd b4 42 72 be d8 9d 13 3d 15 f9 a5 bd
       -0.06492141 -0.23658258 0.036039203 -0.08104149
000320 a7 3a cf 3c 94 a5 66 3d 88 e6 b1 bd 54 7d bf bd
       0.025296522 0.05631025 -0.086865485 -0.09350076
000330 f4 3c 1d 3e 2b f6 1d be ab 9e 8b 3d e7 ed f9 3d
       0.15355283 -0.15425937 0.06817373 0.122035794
000340 68 14 c2 bd 4f 6a 71 3e 98 20 39 3e eb aa 95 3e
       -0.094765484 0.2357571 0.1807884 0.29231963
000350 4a 16 8d bd ca 05 62 bd 2e 78 18 be 44 10 48 be
       -0.06889017 -0.055181302 -0.14889595 -0.19537455
000360 d6 5e 4a 3d f0 e7 3a bc 69 d4 5d 3e 1a 41 0c 3e
       0.04940685 -0.011407837 0.2166306 0.1369671
000370 e1 4f 23 3e 51 16 3f 3d 5a 1d a7 3d 9c 1b 28 be
       0.1594844 0.046652142 0.08159895 -0.16416782
000380 b3 87 61 3e 69 58 62 3e 35 85 8a be 63 99 29 be
       0.22024421 0.22104038 -0.27054754 -0.16562419
000390 de 85 45 3e 75 1a 3a bd 7d 65 85 3d 1d 34 b7 3d
       0.19289348 -0.045435388 0.06513498 0.08945487
0003a0 46 c8 91 bd 4d 8f 6e 3c bd 33 4f 3e 6e d2 34 bc
       -0.07118277 0.014560533 0.2023458 -0.0110364985
0003b0 7a d9 e8 bd d8 45 94 bd 0b 4e 84 bd 5a 8f 3b be
       -0.11369605 -0.07239884 -0.06460198 -0.18316403
0003c0 6a 0b 80 bc 4a 73 37 be de 9f 81 3e aa 36 17 be
       -0.015630443 -0.17915073 0.2531728 -0.14766946
0003d0 b2 0c 09 3e 8d 5f fa bd bc 9c b5 bd 1a 24 71 3e
       0.13383749 -0.12225256 -0.08867785 0.23548928
0003e0 7e f5 91 3d a2 94 3e 3c 99 ae e4 bd bf 5d 46 3e
       0.07126902 0.0116321165 -0.11166114 0.19371699
0003f0 86 e5 01 bd 9e 72 bf 3d e4 07 3f bd b6 60 98 bd
       -0.03171303 0.09348033 -0.046638384 -0.07440321

MaskedMultiheadSelfAttention.value.bias f4 [18]
000000 4f a7 3e 3e 34 d3 0d be 3b 60 93 ba 9f d7 5a bd
       0.1861851 -0.13850099 -0.0011243889 -0.05342829
000010 f5 3f a4 bc 72 08 56 3e 3d 0a 65 3e 3e b1 ae bd
       -0.020050028 0.20901659 0.22367187 -0.085299
000020 b3 bd 54 be 61 eb 40 bd 77 7d ff bb 72 56 e0 bd
       -0.2077549 -0.047099475 -0.007796939 -0.10953988
000030 67 83 b5 bd 15 1c 08 3e a2 6c c5 bc 15 bc b5 3c
       -0.08862954 0.13291962 -0.024099652 0.022184411
000040 ac 96 2e bd a7 0c 07 3e
       -0.04262416 0.1318842

MaskedMultiheadSelfAttention.out_proj.weight f4 [18, 18]
000000 d2 c8 96 3e 10 ab be 3d 85 f2 00 be 85 ed 27 3d
       0.2945009 0.09309971 -0.12592514 0.040998
000010 54 b6 1b 3e 07 e7 ea bd 90 28 8c 3d d0 82 cf bd
       0.15206271 -0.11469846 0.06843674 -0.101323724
000020 02 72 db 3d 8a c5 26 3d 85 fd 83 bd c1 34 51 be
       0.10715105 0.04071573 -0.064448394 -0.2043028
000030 7d bc fa bd 7d e4 1b 3e fc 3a 4c 3e b3 5b a7 3d
       -0.122429825 0.1522388 0.19944376 0.08171787
000040 1f ea 9a be eb 04 1e bc 18 54 43 3e af 96 87 bd
       -0.30256745 -0.009644727 0.19075048 -0.066205375
000050 5b 0f 51 be 33 26 07 3e e5 99 b9 3d 3e 74 21 3e
       -0.20416014 0.13198166 0.09062556 0.15766999
000060 58 68 76 3e b5 13 b5 bd d3 4b fd bd dd 62 a6 3e
       0.24063241 -0.088416494 -0.12367978 0.32497302
000070 55 0e 8f bc 23 f4 85 3d 4e 3e 82 bd e2 1a 9c bc
       -0.017462889 0.06540706 -0.0635954 -0.019055787
000080 08 00 58 3d dc 04 37 3e 24 51 32 be 20 df 99 3d
       0.052734405 0.17872947 -0.17413765 0.07513261
000090 1b 8f 94 bc 57 c5 c7 bd 60 da 32 bc 3f 7c 49 bd
       -0.018134644 -0.097544365 -0.0109163225 -0.049190756
0000a0 bf 0d ac 3d 6b e8 68 be f0 9f aa bc 1a 20 66 bd
       0.08401059 -0.2274491 -0.020828217 -0.05618296
0000b0 0e d3 b3 3a 76 0d 8d 3e bb 6c 2f 3e b2 18 c1 3d
       0.0013719515 0.27549332 0.17131321 0.094285384
0000c0 a7 f7 0e bc c9 7e ef bd 85 e9 7d 3e 3c 0d 6b bb
       -0.008726037 -0.11694104 0.24796112 -0.0035866043
0000d0 47 ce b5 bd f9 33 a5 bd 4f 30 e4 bc bc 63 65 be
       -0.08877235 -0.080665536 -0.027855067 -0.22401327
0000e0 5d 22 69 3e 24 0e 54 bb c9 dd ad 3e 75 6d 87 bb
       0.22767015 -0.0032357061 0.3395827 -0.0041329213
0000f0 71 02 46 be 6f 3d 09 3c b4 f2 91 3d 0c f3 57 bd
       -0.19336869 0.008376463 0.0712637 -0.052722022
000100 e5 4d 33 be 9e bf 5e be 7e 85 cd bd 23 08 22 3e
       -0.17510183 -0.21752784 -0.10035227 0.15823416
000110 b8 85 f2 3c 1a 5c 5a 3e 8c 22 07 be 0f 32 2a 3c
       0.029604778 0.21324196 -0.13196772 0.010387911
000120 5e cc 20 3e b3 e6 79 3e 7e 1a 24 3e 4a 75 66 3e
       0.1570296 0.24404411 0.16025731 0.2250568
000130 43 a1 d8 be be 4a 75 3e 6f c7 5d be 7a fd 1f be
       -0.42310533 0.23954293 -0.21658109 -0.15624037
000140 52 fc 75 3c 39 57 39 3e 91 c3 c1 bb 9f 67 28 be
       0.015013771 0.18099679 -0.005913206 -0.16445778
000150 c0 f9 15 3e 4e 6d 8d 3d 66 96 6d bd c8 de f6 39
       0.14646053 0.06905614 -0.05800476 0.0004708676
000160 2c f4 5e 3e 0d a2 0c 3e 70 f8 6d be 22 d7 f3 bd
       0.21772832 0.13733692 -0.23239303 -0.11906268
000170 f3 1c d5 3b 88 ef 28 3e fe 2b 5d bc b2 13 c2 3d
       0.006503695 0.16497624 -0.013499258 0.09476413
000180 6e 02 f7 bd a7 b9 d4 3c 78 2b c1 3d 39 76 41 be
       -0.1206101 0.025967432 0.09432119 -0.18892755
000190 e1 38 48 be b1 1f 38 be bb f4 14 bd 9c 43 2a be
       -0.19552948 -0.1798084 -0.036366206 -0.16627353
0001a0 b8 1f 2a be 96 93 d8 bd 8e 3c 8c bd 7c d9 20 3e
       -0.16613662 -0.10575025 -0.068474874 0.15707964
0001b0 47 a6 8f bd c3 55 e8 bc 88 28 c7 3d 39 53 eb bd
       -0.07014137 -0.028361207 0.097245276 -0.11490483
0001c0 b5 19 1b 3e 96 b9 f5 bc ba 0b 61 3d f5 77 c2 3d
       0.15146525 -0.02999572 0.054942824 0.09495536
0001d0 a2 41 51 be 9d fb 7a be 2d 43 5c be f8 63 97 be
       -0.20435193 -0.24510045 -0.2151 -0.29568458
0001e0 6a 84 8f 3d 51 44 2a be 6f c0 f4 3d ca f6 31 bc
       0.07007678 -0.16627623 0.11950766 -0.010862062
0001f0 11 14 f7 3d fa b7 64 bd 72 86 c7 3d ac e9 6e 3d
       0.12064374 -0.055839516 0.0974244 0.058328316
000200 d1 bf 09 be 49 8c 1c be f2 32 8b be af 57 8c 3d
       -0.13452078 -0.1528789 -0.27187306 0.06852662
000210 d9 28 a4 3b b8 00 10 3d c4 8c c1 bb 05 8d 70 3e
       0.005009752 0.035156935 -0.005906673 0.23491295
000220 82 6f 5f 3e c3 52 8a bd e1 d3 1d be ae 09 75 be
       0.2181988 -0.06754067 -0.15412857 -0.23929474
000230 e9 03 d1 3d c4 d8 10 be a6 bc 03 be 17 2e ea 3b
       0.10205824 -0.1414519 -0.12864932 0.0071466076
000240 93 80 20 bd 95 09 0f be 28 b7 47 3e ef 77 73 bd
       -0.039185118 -0.13968499 0.19503462 -0.05944055
000250 79 1a fc 3c e2 0a 5c 3e e4 b3 05 be 83 c9 a4 bc
       0.030774342 0.21488526 -0.13056904 -0.02011562
000260 eb ae c9 3d 55 bd 9b bd 96 28 f5 3d b5 3d 1b 3e
       0.09847816 -0.076044716 0.11970632 0.15160258
000270 c7 f3 35 3d e8 fd 1d 3e e9 06 35 be 59 cf 62 3e
       0.044421937 0.15428889 -0.17678417 0.2214941
000280 12 26 2d be 55 3b db 3d 8a b1 68 ba 34 1c dc 3d
       -0.16909054 0.10704676 -0.0008876553 0.10747567
000290 29 b9 16 3e 3d 04 40 be ce d4 05 3d 36 a3 f2 3d
       0.1471907 -0.18751617 0.03267365 0.11847536
0002a0 45 ec cd bc ba f0 6a 3e fb 79 09 3e f0 a4 4a bd
       -0.025137076 0.22943392 0.13425438 -0.049473703
0002b0 f9 a5 e4 bd 00 c9 c3 bc a1 d4 58 be f7 8f c5 3d
       -0.11164469 -0.023899555 -0.21174861 0.096466
0002c0 3e 59 01 be 1e d5 d4 3d 60 6f 7e be ca 4a 05 3e
       -0.126317 0.103922114 -0.24847174 0.13016811
0002d0 23 a0 55 be 66 cc b4 3a 9b 5b 1b be c9 b2 80 be
       -0.20861869 0.0013793826 -0.15171663 -0.25136402
0002e0 2a 7b ba be ec 48 77 3e 20 1a 48 be b4 06 07 be
       -0.36422092 0.24148911 -0.19541216 -0.13186151
0002f0 f6 de 75 be 82 c7 0b bd 99 ea 19 3e 69 4a fd bd
       -0.24010834 -0.034125812 0.15030898 -0.12367708
000300 b6 ba 83 be ed 44 8f bd 36 5f 95 bd 12 2b 9a bd
       -0.25728387 -0.069955684 -0.07293551 -0.07527746
000310 9b 8b 06 be 5e 11 a6 bd ad 38 86 be b3 e9 3d be
       -0.13139193 -0.08108781 -0.26215115 -0.1854618
000320 e8 a7 87 be 5e 85 b1 3d 1f 2e b1 be db db d0 bc
       -0.2649529 0.08668016 -0.346055 -0.02549546
000330 46 10 9e be 87 83 3d be c4 7f 77 3d a8 5e 0d 3e
       -0.3087179 -0.18507205 0.06042458 0.1380564
000340 78 d9 20 be 56 4e b5 bd c7 56 4e 3e 18 17 87 3e
       -0.15707958 -0.08852832 0.2015029 0.26384807
000350 dd b9 11 be ea 64 06 3e 29 75 6d bd c3 c7 02 be
       -0.14231057 0.13124433 -0.05797306 -0.12771516
000360 76 aa 93 3c d8 9c ae 3d 90 92 31 3d 34 92 61 3e
       0.018025618 0.08526009 0.043352664 0.22028428
000370 f6 eb 14 be 71 e8 9a bc 45 d6 2e bc 4a 3b 4c be
       -0.14543137 -0.018909665 -0.010671203 -0.19944492
000380 56 45 e0 bd 64 a8 45 3e 53 ff 50 be a8 31 47 3e
       -0.10950725 0.19302517 -0.20409898 0.19452536
000390 94 64 0f bd ae 0e 0f 3d 06 d3 21 bd 4a 0b 67 3e
       -0.03500803 0.03492611 -0.03950789 0.225629
0003a0 5c 7d 43 be 46 07 d6 3d 11 b8 41 bc af 9c c7 3d
       -0.1909079 0.10450606 -0.01182367 0.09746682
0003b0 a3 4d 22 3e 90 fa 72 be 0d 41 06 bd 2a e1 a8 bb
       0.15849929 -0.23728395 -0.03277688 -0.005153795
0003c0 dc 07 53 3e 6f bf 0e be 4c 53 8f bc 44 9a f3 3c
       0.20608467 -0.13940214 -0.017495774 0.029736646
0003d0 3d d4 41 3e 69 11 88 bd 49 b7 29 be b8 e6 57 bd
       0.18928619 -0.06643946 -0.16573824 -0.052710265
0003e0 5b fb a7 bc 61 f6 f3 3c 60 72 38 3c c9 82 13 be
       -0.020505598 0.029780569 0.011257738 -0.1440536
0003f0 da 7b f4 bd 70 e7 f2 3c 08 60 87 3d 70 c2 08 3e
       -0.11937685 0.029651374 0.066101134 0.13355422

MaskedMultiheadSelfAttention.out_proj.bias f4 [18]
000000 cc 2d 2d be b9 be 0f 3e d9 ef 0e be 6a b2 8f 3d
       -0.16912001 0.14037599 -0.13958682 0.07016452
000010 ac 9a 36 3e df 68 7a be ba f6 62 b8 82 3a 91 3e
       0.1783244 -0.24454068 -5.411238e-05 0.2836495
000020 68 d2 84 be a3 60 a4 bd b1 21 05 3e 0a cb 2b 3a
       -0.25941777 -0.080262445 0.13001134 0.00065533875
000030 43 09 62 be 11 cd 5a be c2 15 09 3e 76 2b 44 be
       -0.22073846 -0.21367289 0.13387206 -0.19157204
000040 57 0f 91 3d 22 4e fd 3d
       0.07083004 0.12368418

WindowBasedCrossAttention.W_Q.weight f4 [18, 18]
000000 32 53 d3 3d 78 dc 2f 3d 01 bc 6e bd 0d a8 a5 3d
       0.103186026 0.042934865 -0.058284763 0.08088694
000010 1e 99 77 bd ca 8b 6c bd 19 9f e8 bd 25 d4 66 be
       -0.06044876 -0.0577505 -0.113584705 -0.22541864
000020 b9 23 09 be 2b 26 be 3d 7a 78 50 be 17 52 86 bb
       -0.13392533 0.09284624 -0.20358458 -0.0040991413
000030 76 99 1e 3d 54 d2 59 be e3 b6 73 be 6a 1b 93 bd
       0.03872057 -0.2127164 -0.23800234 -0.07182963
000040 26 e4 54 3c a0 ff 98 3e f1 de 22 be a0 66 02 3e
       0.012993848 0.29882526 -0.15905358 0.12734461
000050 2f 37 38 be a5 58 1c 3e 4c 39 c7 3d e0 1c 88 be
       -0.17989801 0.1526819 0.097277254 -0.2658453
000060 f0 ba 54 be f3 b0 10 3e 24 05 84 be 97 67 16 be
       -0.20774436 0.14130001 -0.25785172 -0.14687954
000070 fa 17 49 3e 3b 95 91 be e4 8c 17 3d 28 19 e0 bc
       0.19638053 -0.28434166 0.0369996 -0.027355745
000080 f6 f7 74 3e 43 1c a7 3d 82 94 7f 3e 14 68 aa bd
       0.23922715 0.08159687 0.24958995 -0.083206326
000090 42 e2 9c 3c 0d 97 2c bd 08 2a 8d bd 36 c5 98 3c
       0.019150857 -0.04213624 -0.068927824 0.018648725
0000a0 24 43 20 be e5 8a 31 3d db 35 fe bc 24 94 af 3c
       -0.15650612 0.04334535 -0.03103154 0.021432944
0000b0 a7 1a 70 3d aa 03 29 be 30 fb a5 bd e0 69 17 3e
       0.058619168 -0.16505304 -0.08104551 0.14786482
0000c0 0a e9 61 be b0 88 c0 bd 06 bc 22 be a0 d2 07 be
       -0.22061554 -0.09401071 -0.15892038 -0.13263941
0000d0 73 0e 4c be 3c ec 46 3e 0a a7 18 bd d6 c0 a0 be
       -0.19927387 0.19426054 -0.037268676 -0.31397122
0000e0 70 fe 3a bd d1 64 71 3e c9 91 65 3e f2 37 49 3e
       -0.045652807 0.23573615 0.22418894 0.19650248
0000f0 4d f1 47 3c f5 af 80 be 78 33 38 be 6c c7 21 3e
       0.012203527 -0.25134245 -0.17988384 0.1579873
000100 6a 35 90 3e f6 9a 0d bd f9 2e 5a be 28 aa 3c be
       0.28165752 -0.03457161 -0.21306981 -0.18424284
000110 a3 2f 83 be 29 77 aa bc 95 83 5e be 26 5a 78 3e
       -0.2562228 -0.020808773 -0.21729882 0.24253139
000120 5f 9d 7d be 64 02 54 bc 9b 3d 38 bd 33 18 25 3c
       -0.24767064 -0.012940023 -0.044980627 0.01007657
000130 3d 50 2a 3c fb 95 9c be cd c8 12 3e 9c 05 d0 bd
       0.010395107 -0.30583176 0.14334412 -0.1015732
000140 8a 95 88 bd 86 07 f4 bd 34 ae 69 be c4 36 97 be
       -0.06669147 -0.119154975 -0.2282036 -0.2953397
000150 c4 b5 53 be 30 7e 03 3e 2c 59 51 3d 94 2e 59 be
       -0.20674807 0.12841105 0.05111043 -0.21209174
000160 b8 ec c1 3d 66 ce 22 be 22 ad 32 be e7 c2 5d be
       0.09468979 -0.15899047 -0.17448857 -0.2165638
000170 8f 63 5e be 54 c7 15 3d 44 a2 5a bd 7f 60 57 3e
       -0.21717666 0.036567047 -0.053377405 0.21032904
000180 44 76 54 be 59 3b 3a 3e 9d dd 36 be b9 c6 ed 3d
       -0.2074824 0.18186702 -0.17857976 0.11610169
000190 0e 70 16 3e 2b c3 1c bd ae 5b 93 bd 82 d8 3d be
       0.14691183 -0.038272064 -0.07195221 -0.18539622
0001a0 87 72 1e be c4 f5 e0 bd 3b 72 08 be b1 8f ee 3d
       -0.15473376 -0.10984376 -0.13324825 0.11648501
0001b0 61 3a 79 3d a5 36 53 be 49 44 b9 be 79 21 8f 3d
       0.06084669 -0.20626314 -0.3618491 0.06988806
0001c0 23 fe 0e be 4d 1e 00 3e 98 e2 c5 3c 9e 92 93 bd
       -0.13964133 0.12511559 0.0241559 -0.072056994
0001d0 f6 3d 53 be e6 8e 63 bb b9 2e 88 3d d9 46 fb 3d
       -0.20629105 -0.0034722625 0.06649537 0.122693725
0001e0 22 bf 81 be 08 75 8e bd d6 0f 96 bc 15 62 21 bd
       -0.25341135 -0.06955916 -0.018318098 -0.03940018
0001f0 1c 8d c6 3a 60 3d 4c 3e 1f 58 54 3e 6e 31 bc 3d
       0.0015148255 0.19945288 0.2073674 0.091891155
000200 10 e6 6b be 75 41 8a 3d 20 5b 5c be 24 84 bb bc
       -0.2303698 0.06750766 -0.21519136 -0.022890158
000210 6f ef 11 be 95 ba 25 3e 8d 80 5d 3e 23 93 9d bd
       -0.14251493 0.16184457 0.2163107 -0.0769408
000220 ec 27 db bd 7b 4a 54 be 8a 41 16 3e 6a ba 07 3e
       -0.10700974 -0.20731537 0.14673439 0.13254705
000230 e3 08 72 3e 4e d2 6a bc 98 3f 16 3e ae 3a 1e be
       0.23636203 -0.014332367 0.14672697 -0.15452072
000240 3e 8f 87 be 83 09 9d be c2 33 48 be a3 9d 01 3e
       -0.26476473 -0.3067132 -0.19550994 0.1265779
000250 b7 cb 21 be 20 16 64 3e d5 a1 fe bd 02 8b ab bc
       -0.15800367 0.22274065 -0.12433211 -0.020940308
000260 24 8d f9 bd 02 fa 8b bc e4 1d f0 bd c2 d5 56 3e
       -0.121851236 -0.017086986 -0.11724451 0.2097998
000270 ee 90 9c be 88 ce b2 3d d9 bf 95 be 70 56 ac bd
       -0.30579323 0.08730799 -0.2924793 -0.08414924
000280 c0 ba b8 3c 00 a1 fb 3c fb ff 94 be c7 b5 61 be
       0.022549987 0.03071642 -0.29101548 -0.22041999
000290 8b ba 6e 3d 65 cc 30 3e 32 2d 3a 3e 47 0e eb 3c
       0.05828337 0.1726547 0.18181303 0.028693331
0002a0 e0 65 88 3e 94 02 e7 bd 98 01 3b be 5a 11 1f 3e
       0.26640224 -0.112797886 -0.18262327 0.15533963
0002b0 4e 99 ba 3d 46 3a 54 3e 5f 44 12 3e 93 76 95 3b
       0.09111272 0.20725355 0.14283894 0.0045612543
0002c0 2f 5f de 3d 6d 7e 82 be 75 2c fc bd 7f 06 8c 3e
       0.108579986 -0.2548708 -0.12313167 0.27348706
0002d0 a0 83 55 be 66 ed 2f 3e c5 31 2f be 2d 17 af bd
       -0.20850992 0.17180404 -0.1710883 -0.08549342
0002e0 1f ae 33 3e 63 83 1e 3e 86 ae 4a 3d a4 2f 0a be
       0.1754689 0.15479808 0.049482845 -0.13494736
0002f0 89 c1 cc 3d 78 a0 10 3e 91 13 40 3e 6b df 65 bb
       0.099978514 0.14123714 0.18757464 -0.0035075794
000300 53 b7 2b be 05 86 f9 3d bc 66 03 bd 52 0c be 3d
       -0.16769151 0.12183765 -0.032080397 0.09279694
000310 bb ba e4 bd 64 0e 1d 3e cd 5c 37 3e 15 60 79 3d
       -0.111684285 0.15337521 0.17906494 0.060882647
000320 f1 56 53 3e ac 54 32 bc 5f 59 ea bc a6 94 a3 3e
       0.20638634 -0.010884445 -0.028607069 0.31949347
000330 09 d4 93 3e be df 69 be 71 c4 7c 3d 26 8a 93 b9
       0.28872707 -0.22839257 0.06171078 -0.00028140954
000340 6c 56 9d 3d c0 0e 83 3e a1 5e 76 3e 47 54 93 bc
       0.07682499 0.2559719 0.24059536 -0.017984523
000350 bc 64 5b be f9 56 8d bd b3 00 3e 3d d3 a8 86 3e
       -0.21425146 -0.06901354 0.046387386 0.26300678
000360 ad c3 15 3d 81 89 d3 bd 12 c5 85 bd 6e 35 44 be
       0.036563564 -0.10328961 -0.06531729 -0.19161007
000370 3c b2 05 be 66 e4 20 3d f6 b0 17 3d ba a6 47 3e
       -0.13056272 0.039280318 0.037033997 0.19497195
000380 6e 19 5a be df 5e 95 bd 4f b8 47 3e e1 f8 ac be
       -0.21298763 -0.07293486 0.19503902 -0.3378363
000390 3b 7a a1 3d 07 5d 99 3e 65 5c d2 3d 4d 0e 57 be
       0.07884642 0.29953787 0.10271529 -0.21001549
0003a0 58 4e 0b bc c6 41 97 be 05 c8 46 be 47 5b b4 bd
       -0.008502565 -0.2954237 -0.19412239 -0.08806472
0003b0 a2 07 76 3e 46 ea 33 3d 7d 50 29 3d de 0e bb bd
       0.24026349 0.043924592 0.041336525 -0.09133695
0003c0 f9 55 f1 bd bb 6b a8 bc a3 cf 0c be 92 fd aa 3d
       -0.11783976 -0.020559182 -0.13751082 0.08349146
0003d0 dd 4b 1a 3e ec ac 11 3e 15 fb 1a bc 6d ae 05 be
       0.15068002 0.1422612 -0.009459277 -0.1305482
0003e0 0f 36 48 be 7a c5 e1 3d 9f be 8f be cb d7 b2 bc
       -0.19551872 0.11023994 -0.2807512 -0.021831414
0003f0 5f e8 bb bd 1f af 54 3d 15 43 5c be d6 3b d5 bd
       -0.09175181 0.05192482 -0.21509965 -0.104118034

WindowBasedCrossAttention.W_K.weight f4 [18, 18]
000000 b3 2c 4c 3e 2b 14 04 be 0b 98 a6 3d 9e 4b a7 3d
       0.19938926 -0.12898318 0.08134469 0.0816872
000010 22 a5 06 3e e9 9d 6e be af fb d9 3c 2a db 94 3c
       0.1314893 -0.23302425 0.02660927 0.018170912
000020 e2 bf d9 3c 9f 2a 52 3e 59 df 26 3e 5d c6 43 be
       0.026580755 0.20524071 0.16296138 -0.19118638
000030 d4 c8 a1 3d fd af 07 3e e2 67 6d be e2 28 aa bd
       0.07899633 0.13250728 -0.2318416 -0.08308579
000040 83 d9 2d 3e ab 70 11 3e f7 25 62 be 58 9c 5f 3e
       0.16977505 0.14203136 -0.22084795 0.21836984
000050 97 8c bd bd c7 f1 99 be 41 ee 10 3e c9 ee 57 be
       -0.09255331 -0.30067274 0.14153387 -0.21087183
000060 a8 2d 94 be a6 69 27 3e af b4 49 3d ed ac 8f 3c
       -0.28941083 0.16348895 0.04924458 0.017538512
000070 5d 72 0d 3e 27 52 3b 3e d5 d0 59 3b 7d 0f 41 be
       0.13813157 0.18293057 0.0033236046 -0.18853565
000080 b0 3f 78 bd f2 34 a6 bd da d2 4e b9 c6 e2 e5 3d
       -0.060607612 -0.08115567 -0.00019724239 0.11224894
000090 3a 3b f9 3d e6 d1 20 be f4 56 84 be 4f a2 cc 3c
       0.121695 -0.1570507 -0.2584759 0.024979739
0000a0 c3 4a af bd de f4 4a 3e 9e 3c f5 bd bd 09 f6 3d
       -0.085591815 0.19819972 -0.119744524 0.12013576
0000b0 9d d3 a8 bd 18 e0 42 be bc 3a 03 bd 17 4d 8d be
       -0.08243487 -0.19030797 -0.032038435 -0.27597877
0000c0 71 91 6c bd 5a 06 24 39 6f a1 cd bd 18 a6 ae 3d
       -0.05775589 0.00015642625 -0.10040557 0.085277736
0000d0 c7 9a 26 3e cd d2 75 be 3b 89 06 bd 18 33 38 3e
       0.1626998 -0.24006195 -0.032845717 0.1798824
0000e0 03 e5 48 3e 45 b3 46 3d 6d 9d 18 be d4 02 24 3e
       0.19618611 0.04851081 -0.14903803 0.16016704
0000f0 84 19 cf 3b a9 60 54 3c 99 d2 47 be 15 06 24 3e
       0.0063201804 0.012962499 -0.1951393 0.16017945
000100 ff 66 26 be e0 9c b3 be 81 96 9d 3c c8 fd 54 be
       -0.16250227 -0.35080624 0.019236805 -0.20799935
000110 9e f5 8e 3c 9c 53 86 be 32 9a 45 3e 07 16 00 be
       0.017451104 -0.26235664 0.19297102 -0.12508403
000120 4e 8f 1e 39 0a d9 05 3e 99 66 c0 3c c0 28 91 3d
       0.0001512144 0.13071075 0.023486422 0.070878506
000130 fa 4b 0a be a2 d0 96 be b3 81 0a 3e 16 69 83 be
       -0.13505545 -0.2945605 0.13526039 -0.25666112
000140 c7 32 e9 bc 8d d2 15 3e 11 11 87 be 6b 1a 75 3e
       -0.028466595 0.146311 -0.26380208 0.23935859
000150 43 fd 92 be d9 a3 30 3e 63 d7 97 bd 35 fb 87 3e
       -0.28708848 0.17250003 -0.07414129 0.26558843
000160 7e b4 d4 3c 3b 73 35 3c f9 d8 7e 3e b4 c1 1b be
       0.025964972 0.011074836 0.24887456 -0.1521061
000170 74 c8 15 ba 21 c7 28 be 96 70 c6 3d 58 8b 61 be
       -0.0005713769 -0.16482212 0.09689443 -0.22025812
000180 e1 62 12 3e 45 80 5a 3e d0 a4 b3 3d 61 38 1c be
       0.14295532 0.21337993 0.0877167 -0.15255882
000190 90 94 23 be ce 85 45 be 1e 66 57 3e d8 58 3a 3d
       -0.15974641 -0.19289324 0.21035048 0.045494884
0001a0 05 36 e6 3d 62 fb df 3d 06 af 31 3d 6c 92 19 be
       0.11240772 0.10936619 0.043379806 -0.14997262
0001b0 16 41 3f 3e 0f dc 6c bd c7 37 d4 3d 0f af 26 3e
       0.18677172 -0.05782705 0.10362201 0.16277717
0001c0 06 4b 71 be 68 63 45 3e a1 b1 0c 3e 08 15 3c be
       -0.23563775 0.19276202 0.13739635 -0.18367398
0001d0 15 62 e6 3d c7 42 80 3d 18 da 9a 3d df 79 c9 bd
       0.112491764 0.06262737 0.07561129 -0.09837698
0001e0 a9 fd 67 3e f3 9f 2c be 43 19 db bd eb 0b 02 be
       0.22655357 -0.16857891 -0.10698178 -0.12699859
0001f0 b4 33 da bc b2 bb 97 3c 86 e8 8b 3c 8f 2b be bd
       -0.026635982 0.018522117 0.01707865 -0.09285652
000200 05 09 a1 bc ee 5b 80 bd fe 10 c7 3e 50 00 7f 3d
       -0.019657621 -0.06267534 0.38880152 0.062256157
000210 a7 55 7b 3e 87 dd 0b 3e 95 e1 3a be 63 9b 92 bc
       0.24544393 0.13658725 -0.18250115 -0.01789636
000220 5c f3 86 be 5b 4e 4f 3d 70 65 60 be 18 75 d0 bc
       -0.26357543 0.050611835 -0.21913695 -0.02544646
000230 30 82 72 be 09 b4 29 3e 91 36 4a bd 11 ed 77 bd
       -0.23682475 0.16572584 -0.049368445 -0.06052882
000240 89 c4 5e 3d a7 dc e7 bd 3f 0a 17 bb bb 19 9a 3e
       0.05438665 -0.11321383 -0.0023046879 0.30097756
000250 42 cf cb 3c 88 60 d4 bd 11 60 0d bd 7c a4 41 be
       0.024879102 -0.103699744 -0.034515444 -0.18910402
000260 97 31 2b be a7 4a 4c bd e6 e6 e2 bd c0 34 9d be
       -0.16718136 -0.04987588 -0.11079197 -0.30704308
000270 26 3c 6b bd de 54 b2 bb e3 56 12 3e d3 07 34 3d
       -0.05743041 -0.005442246 0.14290957 0.043952774
000280 bf 53 a8 3d 44 0f 40 be 53 58 54 bd 03 14 25 3e
       0.08219098 -0.18755823 -0.051842045 0.16120915
000290 25 1c 4f 3e ae 80 e4 bd cf a6 83 be b7 97 52 3e
       0.2022558 -0.11157356 -0.25713202 0.20565687
0002a0 f5 bc 1c be 85 00 1b be b9 20 e2 3d 35 97 42 3e
       -0.15306456 -0.15136917 0.110413976 0.19002993
0002b0 3d ed 92 3c 15 7d 6e bd b4 47 5e bd 56 3e 0c bd
       0.01793539 -0.058224756 -0.0542676 -0.034239136
0002c0 37 28 8f 3e ca e8 ab be 7e 4c 39 bd f0 7f b2 3d
       0.2796037 -0.3357604 -0.045238964 0.087158084
0002d0 a9 a5 bc bc fe 1e 1f be 59 5c 19 3e a1 5c 9d bd
       -0.023028212 -0.15539166 0.14976634 -0.07683683
0002e0 06 29 73 3d fa 8f e5 bc 7a 0a e9 3d ef 0e 53 3d
       0.059365295 -0.028022755 0.11378951 0.051527914
0002f0 4b 5b 09 3e f1 64 e6 3d e5 24 15 be 11 1f e3 bd
       0.13413732 0.11249722 -0.14564855 -0.1108991
000300 52 4b 81 3d da 7c d4 3c ac d3 fb 3c 8a 0e 80 bd
       0.06313194 0.02593844 0.030740581 -0.06252773
000310 99 1a 31 be d8 9a bb 3c db 7e 86 3e 32 98 05 3e
       -0.17295302 0.022900984 0.26268658 0.13046339
000320 ff 9c 74 be a0 30 cb bd 62 bd ac be 9b 8b 53 bd
       -0.23888014 -0.09921384 -0.33738238 -0.05164681
000330 4d e2 f4 bd d0 fc 97 bd ea 3a 1c 3e e4 7e 74 bd
       -0.11957226 -0.07421267 0.15256849 -0.059691325
000340 8c 6b 16 be bb ce 88 be a1 29 34 3e 25 ab 48 3e
       -0.14689463 -0.26720223 0.17594005 0.19596536
000350 e0 0e ea bc f2 c5 2b be 04 66 54 be bc 23 17 3e
       -0.028571546 -0.16774729 -0.20742041 0.14759725
000360 51 ab 9b be 4e 00 97 be 91 23 06 3d 1e ae 3f be
       -0.30404142 -0.2949242 0.032748763 -0.18718764
000370 f1 e3 e1 3e b5 1b ba be aa 6d 30 3e 09 f0 8a bd
       0.44119218 -0.36349264 0.17229334 -0.06784064
000380 b6 8d 97 3d b2 ef ea bd 41 50 8b be 74 44 68 3e
       0.07400076 -0.114714995 -0.27209666 0.22682363
000390 66 12 05 be 09 1f 66 3d 5e 9a 18 bd 75 43 ae bd
       -0.129953 0.05618194 -0.03725659 -0.0850896
0003a0 30 e6 f4 bd d3 fe 03 3e 1a b7 02 3e 41 bd d1 bd
       -0.11957967 0.12890176 0.1276516 -0.102411754
0003b0 43 8c 3c 3e 57 06 c3 bd fb 37 75 3d 75 e7 b5 3d
       0.1841288 -0.095226936 0.05986784 0.088820376
0003c0 85 48 8e be 66 10 9e bd fb 40 b7 3c 90 3d 8c 3e
       -0.27789703 -0.077179715 0.022369852 0.27390718
0003d0 7b cd 0a 3e ce a1 5c be 8b e9 53 3e 78 aa b3 bd
       0.13554947 -0.21546099 0.20694558 -0.08772749
0003e0 1d 94 03 3d 73 a0 c0 bd 52 88 67 be 2e d5 16 be
       0.032123674 -0.09405603 -0.22610596 -0.14729759
0003f0 70 d2 4a 3e a7 c4 53 be 33 31 3f 3e 24 b1 62 be
       0.19806838 -0.20680486 0.18671112 -0.22137886
