trillnet_weights_and_E.pth (torch, 22042 bytes, 21 tensors)

embedding f4 [1, 4, 9]
-0.74959433 0.3409544 -0.42618942 1.39307 -0.21741052 -0.15855126 0.4428108 0.35683277
-0.64216715 -0.42152655 0.9838086 0.8000196 -0.5955656 1.7113559 -0.14453574 0.40191245
1.579477 0.5167723 1.1307809 1.0422263 2.075355 -0.77557814 0.25476322 0.570941
-0.66857857 0.7548733 0.9185936 0.7931283 1.1728156 1.2666998 0.17672768 -1.449725
1.0841712 -0.65140206 1.5902114 1.6317253
00000000: 6ae5 3fbf 9391 ae3e 8035 dabe 1e50 b23f
00000010: dda0 5ebe 435b 22be 19b8 e23e c9b2 b63e
00000020: 1165 24bf 54d2 d7be e1da 7b3f 16ce 4c3f
00000030: fd76 18bf b60d db3f 2d01 14be 78c7 cd3e
00000040: 4d2c ca3f 304b 043f 6ebd 903f ac67 853f
00000050: 9ed2 0440 4a8c 46bf 5370 823e 3029 123f
00000060: f727 2bbf 603f 413f f328 6b3f 750a 4b3f
00000070: d21e 963f 3823 a23f 1af8 343e 9790 b9bf
00000080: 1fc6 8a3f 49c2 26bf 0c8c cb3f 60dc d03f

gcn.weight f4 [9, 9]
0.06791094 0.011852941 -0.33104873 -0.3960659 -0.2032085 -0.31194478 0.15884793 0.20839973
-0.19505735 0.13864793 -0.27232158 0.0728539 -0.017269582 0.2289439 -0.116232425 0.12909412
0.2657082 -0.010637845 0.12049412 0.34495503 -0.023024125 0.12804894 -0.094659984 0.43744397
-0.15933834 -0.17539184 0.25539568 -0.31237307 0.30812448 -0.23028757 0.33859465 0.3591484
-0.22897772 -0.11602832 0.3183853 0.025056966 -0.18947986 -0.41669792 -0.21495254 -0.3095043
0.20625854 -0.19387498 -0.0925409 -0.06525921 0.099311106 0.22825922 -0.10000212 -0.32103145
0.057201516 0.05507616 0.18623577 0.049356125 -0.040691923 -0.20743276 -0.06531529 -0.15069133
0.08794651 0.057746634 0.11169374 0.10454985 0.056451023 -0.4800795 -0.28451025 -0.40545145
0.22175546 -0.40264544 0.3518331 0.29972136 0.24242401 0.008579981 0.16257586 -0.037451364
-0.3053034 -0.02236053 0.09787302 0.12646885 0.3182282 -0.34557545 -0.23556595 0.26142865
-0.044865374
00000000: e414 8b3d d632 423c 387f a9be 26c9 cabe
00000010: e415 50be 3ab7 9fbe 08a9 223e bd66 553e
00000020: 1dbd 47be b9f9 0d3e bc6d 8bbe 6d34 953d
00000030: f078 8dbc 4570 6a3e 440b eebd 4031 043e
00000040: e80a 883e 5b4a 2ebc 9fc5 f63d f29d b03e
00000050: 179d bcbc 431f 033e 18dd c1bd a8f8 df3e
00000060: 9729 23be eb99 33be 39c3 823e 5def 9fbe
00000070: 7ec2 9d3e 81d0 6bbe 475c ad3e 4de2 b73e
00000080: 2379 6abe 41a0 edbd 6603 a33e 4444 cd3c
00000090: 0207 42be 6e59 d5be 851c 5cbe 5977 9ebe
000000a0: 7035 533e 2a87 46be 1586 bdbd 9fa6 85bd
000000b0: 9f63 cb3d c9bc 693e e9cd ccbd 3c5e a4be
000000c0: 234c 6a3d 8a97 613d 97b4 3e3e a629 4a3d
000000d0: 93ac 26bd 4169 54be 06c4 85bd d44e 1abe
000000e0: 4d1d b43d bc87 6c3d b0bf e43d 3b1e d63d
000000f0: 3039 673d fbcc f5be 54ab 91be 5597 cfbe
00000100: dd13 633e 8b27 cebe 7823 b43e 1475 993e
00000110: 003e 783e 0c93 0c3c 497a 263e 9a66 19bd
00000120: ba50 9cbe 6e2d b7bc a671 c83d 0d81 013e
00000130: ceee a23e 44ef b0be 3338 71be fad9 853e
00000140: c1c4 37bd

gcn.bias f4 [9]
-0.19374998 0.1210958 0.13658455 -0.3065137 -0.22487518 0.056398883 0.10949715 0.0917778
0.22275373
00000000: 6566 46be 1301 f83d d2dc 0b3e 5def 9cbe
00000010: ae45 66be 8402 673d 0b40 e03d 00f6 bb3d
00000020: 8e19 643e

MaskedMultiheadSelfAttention.query.weight f4 [18, 18]
0.21800849 -0.2518371 -0.18660125 0.019777 0.19372861 -0.031079646 0.15945014 -0.2629333
0.26264888 -0.16752878 0.05259378 0.09910242 -0.28125283 0.27275974 0.20719588 0.10225616
-0.080712184 0.21307458 -0.13371207 0.16714624 -0.3872065 0.0043064686 -0.024017949 0.07337785
-0.036869973 0.18658948 -0.17769195 -0.15679215 -0.20861477 0.02289324 0.30844232 0.051176798
-0.32576975 0.009939403 0.04627292 0.06928376 -0.19669755 0.023368405 -0.2505882 0.010959276
-0.21614665 0.15315843 0.38199598 0.049719803 0.20404868 -0.031462766 0.004791119 0.09154893
0.43522817 0.1902307 -0.34292638 0.06304958 -0.29964244 0.008906405 -0.2889906 0.08632231
-0.12467935 0.21946126 -0.15981144 -0.15620318 -0.009921908 0.22511762 0.16602927 -0.33502883
-0.085559085 -0.1071085 0.28280672 -0.10938741 -0.14308764 0.15402775 -0.30786273 -0.21178941
-0.23743445 -0.12350445 -0.32423434 0.0025850818 -0.16900253 -0.015840953 0.08085553 0.22093733
-0.03730306 -0.044749245 -0.16755678 -0.30914292 0.35779223 0.10990935 -0.37180507 0.09454199
-0.344549 -0.31909195 0.34295124 -0.07839517 0.17698067 0.026111985 0.27168515 -0.16342942
-0.32006726 -0.002879059 0.20358784 0.34410462 0.34293717 -0.004788072 -0.26548952 0.19057904
0.20162427 0.05026641 0.33955455 0.012614784 0.07691227 0.05670474 0.07482395 0.2055991
-0.10094711 0.22262433 0.25149658 -0.13002892 0.25144827 0.28389132 -0.027629616 -0.03746869
0.14865598 0.29791388 -0.16944532 -0.007691399 0.31525707 -0.035742927 -0.2870909 0.25006574
-0.31598765 -0.099310875 -0.23892431 0.17669672 0.091907956 -0.08547458 -0.0037611788 0.063056916
-0.2581147 -0.15148924 0.2843176 -0.26481852 -0.113461584 -0.06319053 -0.21533273 -0.29130858
0.2627093 -0.092271365 0.1575633 -0.25857434 0.24207574 0.042820647 -0.012701275 -0.06513378
-0.2728803 0.21755898 -0.08501256 0.03382237 0.0127284685 -0.121564545 -0.08415881 -0.16188113
0.20247722 0.053752434 0.096406795 0.22238575 -0.31071994 0.1723147 -0.2497826 -0.24949315
0.2742468 0.019460492 -0.1222033 0.04124054 -0.14361031 -0.034710284 0.106049344 0.26924834
-0.2706647 0.10158991 0.05050219 -0.26039162 -0.20984998 0.20977356 -0.011520107 0.008348153
-0.122767024 0.1058353 -0.018586777 0.23273775 0.21180697 -0.09984494 0.09106611 -0.02599094
0.2838242 -0.10025974 -0.096470736 0.060954574 -0.10612805 -0.11574136 0.04398785 0.06310667
-0.32725596 0.04704988 0.07172191 0.17282489 0.041538443 -0.101452485 -0.15388526 -0.3191545
0.13006756 0.08760376 0.043281212 0.14351246 -0.17472456 0.17801629 -0.27316314 0.09050906
0.082458064 0.21587606 -0.034166135 -0.08060452 0.028840622 -0.08577432 0.052937884 0.011586108
0.13920103 -0.008760623 -0.09291415 -0.046224564 0.020040922 0.03798268 -0.09568986 -0.1501362
0.30351034 -0.06998386 -0.09011816 -0.23966877 -0.011172796 -0.12353157 -0.14309224 -0.15101159
-0.25416642 -0.23824708 -0.051179722 0.25408942 0.17722923 -0.113173336 -0.011621476 -0.07597175
0.1922132 -0.13372856 -0.09740385 0.30761674 -0.17330529 -0.12581973 -0.18904191 0.023461008
00000000: 9e3d 5f3e cbf0 80be 6614 3fbe 6003 a23c
00000010: cb60 463e be9a febc e646 233e 329f 86be
00000020: ea79 863e aa8c 2bbe 936c 573d 36f6 ca3d
00000030: 5f00 90be 2aa7 8b3e 282b 543e ad6b d13d
00000040: 6e4c a5bd 3930 5a3e d1eb 08be 6228 2b3e
00000050: ee3f c6be 471d 8d3b 4ac1 c4bc 2047 963d
00000060: f804 17bd 5011 3f3e e1f4 35be 1f8e 20be
00000070: 1c9f 55be 9b8a bb3c 27ec 9d3e c39e 513d
00000080: 4bcb a6be e1d8 223c ac88 3d3d a5e4 8d3d
00000090: 156b 49be 196f bf3c 194d 80be 898e 333c
000000a0: 8c55 5dbe 90d5 1c3e fa94 c33e fea6 4b3d
000000b0: 23f2 503e 1adf 00bd d2fe 9c3b 017e bb3d
000000c0: 3ad6 de3e d6cb 423e 0c94 afbe 2320 813d
000000d0: bc6a 99be 2cec 113c 93f6 93be c0c9 b03d
000000e0: e357 ffbd 74ba 603e 9ca5 23be baf3 1fbe
000000f0: 808f 22bc 3c85 663e 9403 2a3e e688 abbe
00000100: 9a39 afbd b45b dbbd 0bcc 903e 8206 e0bd
00000110: 9185 12be 73b9 1d3e 2fa0 9dbe 53df 58be
00000120: 0422 73be e7ef fcbd 0b02 a6be 7a6a 293b
00000130: 000f 2dbe e3c4 81bc 9697 a53d 653d 623e
00000140: 18cb 18bd fc4a 37bd 0194 2bbe fb47 9ebe
00000150: 8b30 b73e 2718 e13d 3c5d bebe 3b9f c13d
00000160: ba68 b0be 0560 a3be 4e97 af3e a68d a0bd
00000170: 6c3a 353e cde8 d53c 511a 8b3e 0b5a 27be
00000180: dbdf a3be 98ae 3cbb 5579 503e 7b2e b03e
00000190: 7695 af3e 42e5 9cbb 3eee 87be 2727 433e
000001a0: 9876 4e3e 27e4 4d3d 18da ad3e 3dae 4e3c
000001b0: 2e84 9d3d 3b43 683d 4d3d 993d 9288 523e
000001c0: 5cbd cebd a2f7 633e 29c4 803e 4d26 05be
000001d0: d4bd 803e 345a 913e 8157 e2bc c578 19bd
000001e0: 4639 183e 2b88 983e 1383 2dbe 2208 fcbb
000001f0: 6069 a13e 2d67 12bd 94fd 92be 9e08 803e
00000200: 22c9 a1be 8063 cbbd 93a8 74be fcef 343e
00000210: 3d3a bc3d 4c0d afbd 1c7e 76bb fc23 813d
00000220: 9c27 84be ff1f 1bbe 1492 913e 4b96 87be
00000230: 8c5e e8bd 096a 81bd 2f80 5cbe 6626 95be
00000240: d581 863e c5f8 bcbd 4658 213e db63 84be
00000250: b4e2 773e b464 2f3d 0219 50bc dc64 85bd
00000260: f7b6 8bbe c8c7 5e3e 111b aebd 5389 0a3d
00000270: 118b 503c d5f6 f8bd 745b acbd 2bc4 25be
00000280: 3056 4f3e 832b 5c3d ed70 c53d 17b9 633e
00000290: af16 9fbe 4473 303e 03c7 7fbe 227b 7fbe
000002a0: 146a 8c3e 9c6b 9f3c b945 fabd d7eb 283d
000002b0: 950e 13be 5f2c 0ebd 6630 d93d ebda 893e
000002c0: 9094 8abe 5f0e d03d 62db 4e3d 0d52 85be
000002d0: eae2 56be e1ce 563e d5be 3cbc b1c6 083c
000002e0: 476d fbbd 2ec0 d83d 4c43 98bc ce52 6e3e
000002f0: ede3 583e 817b ccbd de80 ba3d f4ea d4bc
00000300: 6851 913e fb54 cdbd 7392 c5bd 81ab 793d
00000310: aa59 d9bd ce09 edbd 9b2c 343d 123e 813d
00000320: 188e a7be 60b7 403d f0e2 923d 02f9 303e
00000330: 3724 2a3d 52c6 cfbd 1994 1dbe 3868 a3be
00000340: 6e30 053e 9a69 b33d a447 313d eef4 123e
00000350: ffea 32be e749 363e 0adc 8bbe d05c b93d
00000360: c6df a83d 9d0e 5d3e caf1 0bbd fc13 a5bd
00000370: 2b43 ec3c 72aa afbd 65d5 583d a9d3 3d3c
00000380: b78a 0e3e b788 0fbc c649 bebd f855 3dbd
00000390: dc2c a43c ba93 1b3d 0cf9 c3bd 4ebd 19be
000003a0: b565 9b3e b353 8fbd df8f b8bd bb6b 75be
000003b0: 1a0e 37bc 1ffe fcbd c686 12be c8a2 1abe
000003c0: 1a22 82be 0bf7 73be d4a1 51bd 0218 823e
000003d0: 947b 353e 6cc7 e7bd 0168 3ebc 1497 9bbd
000003e0: 89d3 443e 24f0 08be ab7b c7bd f17f 9d3e
000003f0: f176 31be e3d6 00be 3494 41be 4d31 c03c

MaskedMultiheadSelfAttention.query.bias f4 [18]
0.016181972 0.014763732 0.10062239 -0.15629521 0.16446821 0.044667732 -0.049323056 0.14602935
-0.27416432 0.09302763 0.0026516807 -0.09033167 -0.049855795 -0.20791227 -0.20630935 -0.26235288
-0.19181003 0.15293168
00000000: 0e90 843c 95e3 713c 1d13 ce3d da0b 20be
00000010: 5b6a 283e 83f5 363d f906 4abd b888 153e
00000020: 445f 8cbe 4585 be3d d2c7 2d3b d0ff b8bd
00000030: 9735 4cbd f4e6 54be c242 53be 1e53 86be
00000040: d969 44be 1f9a 1c3e

MaskedMultiheadSelfAttention.key.weight f4 [18, 18]
0.035334572 -0.021026157 -0.14977273 0.2538623 -0.18358995 0.15941423 -0.07462485 0.114495724
0.30040777 -0.2732981 -0.099610835 -0.02147559 0.3548342 -0.037835684 0.0732943 0.15323891
-0.23378053 -0.22870648 0.21340549 -0.15902403 0.15509814 0.002077992 0.027623614 -0.09914388
0.14380667 -0.1742033 -0.24395926 0.07861809 0.38870588 0.07205286 -0.22883932 0.02168774
0.11878372 -0.12166008 0.06265798 0.10236359 0.041829452 -0.31360117 0.23631163 -0.21783136
-0.14195642 -0.29173848 0.27292204 -0.07158996 -0.105811864 0.27004614 -0.08516164 -0.03378717
0.004834072 0.024636976 0.20015402 0.13584124 0.026064837 0.087218575 -0.053324662 -0.059042256
0.4145649 -0.30551904 0.19049515 -0.30429712 0.078795895 -0.37209925 -0.11466231 0.19745012
-0.108335905 0.1546089 -0.2351769 -0.11596281 0.11610469 -0.29257244 0.0411219 0.36561
0.14335676 -0.13089749 0.17811663 -0.13360213 0.06978202 -0.19940478 -0.16326146 -0.39826414
-0.14152738 0.24865256 -0.007488002 0.36596903 -0.26439533 -0.19712783 0.19973245 -0.4130599
0.31983826 0.020866714 -0.0015968321 -0.092404954 -0.047988635 0.13581103 0.03553798 -0.22135362
-0.12903793 0.25457186 -0.10943662 -0.24916862 -0.12720838 -0.16038169 -0.032751586 -0.18626994
-0.058349445 0.19983326 -0.29749042 -0.09674192 -0.27770993 0.009161892 -0.12566957 -0.18280329
0.16522092 0.09894565 -0.09167984 0.2060648 -0.34211016 -0.065198466 0.056422986 -0.14553733
0.1889881 -0.30967912 -0.13969885 -0.15514643 -0.09457341 0.117017165 0.15172505 0.08101346
0.020192372 -0.18446076 -0.19593908 0.12829907 -0.008351777 -0.058053397 -0.08084719 0.21094088
-0.04527237 0.23284554 -0.15119036 0.20827939 0.20713317 0.08213169 -0.13457128 0.08913805
-0.020925552 -0.07691988 -0.26902315 0.2899152 -0.12233861 0.17694826 -0.15992467 0.020173388
0.057819437 -0.11436615 0.21694143 0.059100877 -0.24743016 0.15786234 -0.09768945 0.23210539
0.099605724 -0.11235857 0.2605588 -0.19425838 0.21472427 -0.15172708 0.27994308 -0.14532484
0.018797375 -0.051337805 0.0031662364 0.18600526 0.21027729 0.1925987 -0.17237857 -0.084410764
0.3345484 -0.16919605 -0.17415912 0.081387855 -0.15266737 -0.24457806 0.2583124 -0.118661135
0.14310738 -0.16486527 -0.14138542 0.05366945 -0.069097385 0.31427124 0.26587293 0.11768614
0.16740374 0.06477683 0.022767244 -0.120617256 0.21527633 0.005400365 -0.07782408 0.049070403
0.03328073 -0.26689592 0.21462005 -0.1548391 0.0468631 -0.24475004 -0.15425369 0.10120323
0.13750711 0.078007735 -0.20392597 0.13397637 0.021473479 -0.24392694 0.08237983 0.0057054427
0.15711115 0.1298332 0.08832006 0.051749676 0.1679574 -0.33957958 0.066085294 -0.23024103
-0.05872043 0.19980526 0.30355227 0.17991339 -0.20193633 -0.080531 0.17114481 0.075177655
-0.09191295 0.07079761 -0.1562523 0.26337433 -0.09644592 0.24961182 -0.25955203 -0.03290813
-0.21984957 -0.03531574 0.21760085 -0.3059312 -0.1360347 -0.023424989 0.08877504 0.25236607
-0.013315695 0.29091668 0.012117663 0.11799118 -0.17741562 0.070396386 0.21586268 -0.04337902
00000000: fcba 103d 0c3f acbc 065e 19be 3dfa 813e
00000010: 01ff 3bbe 7c3d 233e ead4 98bd bc7c ea3d
00000020: 0ccf 993e bbed 8bbe c400 ccbd 94ed afbc
00000030: d4ac b53e 97f9 1abd 521b 963d a9ea 1c3e
00000040: 2a64 6fbe 0832 6abe f886 5a3e 32d7 22be
00000050: 0cd2 1e3e ec2e 083b eb4a e23c f20b cbbd
00000060: 0e42 133e 5a62 32be 75d0 79be 8502 a13d
00000070: 7504 c73e 7390 933d db54 6abe 7daa b13c
00000080: e144 f33d ec28 f9bd d452 803d 00a4 d13d
00000090: 5c55 2b3d 5590 a0be adfb 713e 2f0f 5fbe
000000a0: 065d 11be bf5e 95be 70bc 8b3e c29d 92bd
000000b0: e4b3 d8bd 7d43 8a3e 3a69 aebd 6a64 0abd
000000c0: 2367 9e3b 7cd3 c93c 2df5 4c3e f719 0b3e
000000d0: ed85 d53c a79f b23d f66a 5abd 4bd6 71bd
000000e0: da41 d43e fe6c 9cbe 2911 433e d5cc 9bbe
000000f0: be5f a13d cb83 bebe 13d4 eabd 5d30 4a3e
00000100: 37df ddbd cc51 1e3e 37d2 70be e97d edbd
00000110: 4cc8 ed3d 0ecc 95be 706f 283d 3c31 bb3e
00000120: 1dcc 123e fe09 06be 3564 363e ffce 08be
00000130: e0e9 8e3d c430 4cbe 032e 27be 47e9 cbbe
00000140: 8eec 10be c79e 7e3e ea5d f5bb 4b60 bb3e
00000150: d35e 87be e1db 49be aa86 4c3e 967c d3be
00000160: d7c1 a33e acf0 aa3c cb4c d1ba cf3e bdbd
00000170: bb8f 44bd 0c12 0b3e 4690 113d 86aa 62be
00000180: 8522 04be 3e57 823e 4e20 e0bd 0f26 7fbe
00000190: ea42 02be 193b 24be 8726 06bd 8cbd 3ebe
000001a0: d4ff 6ebd 17a1 4c3e aa50 98be a120 c6bd
000001b0: ff2f 8ebe c31b 163c 86af 00be c930 3bbe
000001c0: ac2f 293e 04a4 ca3d a4c2 bbbd a702 533e
000001d0: 1029 afbe c686 85bd ca1b 673d bd07 15be
000001e0: 1986 413e 438e 9ebe 370d 0fbe b5de 1ebe
000001f0: b4af c1bd b2a6 ef3d d05d 1b3e 63ea a53d
00000200: 796a a53c 48e3 3cbe 41a4 48be d560 033e
00000210: e4d5 08bc 66c9 6dbd 3693 a5bd e300 583e
00000220: 856f 39bd 106f 6e3e a5d1 1abe 3147 553e
00000230: b81a 543e a934 a83d 0ecd 09be 038e b63d
00000240: 106c abbc 2c88 9dbd 67bd 89be c46f 943e
00000250: aa8c fabd ed31 353e 4bc3 23be a942 a53c
00000260: 13d4 6c3d cd38 eabd e525 5e3e c313 723d
00000270: 555e 7dbe aaa6 213e 6811 c8bd 09ad 6d3e
00000280: 16fe cb3d 401c e6bd f767 853e abeb 46be
00000290: aee0 5b3e 585e 1bbe b354 8f3e 09d0 14be
000002a0: f4fc 993c 9747 52bd a280 4f3b 2a78 3e3e
000002b0: ee52 573e 9838 453e 0284 30be 8ddf acbd
000002c0: ee49 ab3e bb41 2dbe c556 32be adae a63d
000002d0: d654 1cbe ac72 7abe 8641 843e 9c04 f3bd
000002e0: be8a 123e 71d2 28be 57c7 10be 7fd4 5b3d
000002f0: ee82 8dbd 29e8 a03e 7f20 883e 6e05 f13d
00000300: e36b 2b3e b7a9 843d 5f82 ba3c 2e06 f7bd
00000310: 6671 5c3e 8cf5 b03b 3b62 9fbd 0cfe 483d
00000320: 6051 083d 95a6 88be 5cc5 5b3e 248e 1ebe
00000330: 86f3 3f3d c19f 7abe aef4 1dbe a443 cf3d
00000340: aace 0c3e 85c2 9f3d f8d1 50be 1a31 093e
00000350: 26e9 af3c fcc7 79be c2b6 a83d b9f4 ba3b
00000360: bfe1 203e fff2 043e 26e1 b43d 78f7 533d
00000370: 06fd 2b3e 60dd adbe ba57 873d 4ec4 6bbe
00000380: d584 70bd c099 4c3e 346b 9b3e 373b 383e
00000390: 66c8 4ebe 70ed a4bd 9640 2f3e bef6 993d
000003a0: db3c bcbd 56fe 903d 9a00 20be 00d9 863e
000003b0: 7085 c5bd 3e9a 7f3e 01e4 84be adca 06bd
000003c0: 3f20 61be 3da7 10bd c2d2 5e3e 04a3 9cbe
000003d0: ae4c 0bbe c3e5 bfbc b0cf b53d 2036 813e
000003e0: 132a 5abc 08f3 943e 2a89 463c 5ca5 f13d
000003f0: 71ac 35be fb2b 903d 1b0b 5d3e 33ae 31bd

MaskedMultiheadSelfAttention.key.bias f4 [18]
0.27909023 -0.13728665 -0.09422035 -0.2840036 -0.19725384 -0.09248616 0.1850062 0.17305203
0.24158849 0.094201766 0.13490704 0.028232329 0.08346881 -0.010762538 0.17140523 -0.22942325
0.17837776 0.22906445
00000000: eae4 8e3e df94 0cbe 99f6 c0bd eb68 91be
00000010: e9fc 49be 6269 bdbd 4472 3d3e 8d34 313e
00000020: f962 773e dbec c03d 1225 0a3e 7c47 e73c
00000030: b2f1 aa3d 5b55 30bc da84 2f3e eeed 6abe
00000040: a9a8 363e df8f 6a3e

MaskedMultiheadSelfAttention.value.weight f4 [18, 18]
-0.20492698 -0.24620646 -0.15888906 -0.3163572 0.13049173 -0.22109531 -0.18729848 0.122854024
-0.25922534 0.0036872206 -0.09902643 -0.08338418 0.07405653 0.029895352 0.11931614 -0.051297955
0.21678531 -0.09166631 0.14878455 -0.124399506 0.3205679 -0.14073296 0.26167506 0.26690793
-0.046161555 -0.17897315 -0.06191635 -0.027667262 -0.0050204387 -0.0065334984 -0.1835798 -0.08486435
0.07781157 0.11440748 0.35126707 -0.07939376 -0.18991524 0.05993699 0.006032517 -0.14347006
0.15035747 -0.191644 -0.10908962 0.080189615 -0.11604407 0.20492847 -0.09025752 -0.07069547
-0.17007375 0.026271656 0.07939611 -0.12230598 0.02764815 0.18249354 -0.023341592 -0.0857901
-0.10114775 -0.08145626 0.26587388 -0.018341975 0.15208758 -0.087231286 0.030078733 0.13741912
0.048521183 0.12731539 -0.30118784 -0.26512307 0.1540009 -0.10227817 -0.06363822 0.26430425
-0.1388644 -0.17094451 0.246144 0.07216078 -0.09940524 -0.20674822 0.03681223 -0.1994481
0.01459208 0.016169995 0.008321943 0.24448626 -0.014970152 -0.117684186 0.28209668 -0.08546258
0.1140263 -0.08706765 0.26849326 -0.22513436 0.31077382 -0.04726851 -0.101773925 0.12830395
0.09086721 -0.092883885 -0.00947723 -0.099492885 -0.011332958 0.14740638 -0.22585003 0.07417438
0.22911194 0.11427403 0.19633134 -0.044786718 0.027708225 0.24108806 -0.10772562 0.18270196
-0.081665784 -0.21180183 -0.19990656 0.005193408 -0.012556137 -0.25220147 0.114194125 0.10065063
0.14632276 -0.08134659 -0.1202145 -0.12487147 0.08691562 -0.27711228 -0.09038916 0.03684019
0.03330879 0.13115737 -0.27103743 -0.16170734 -0.14380945 0.021119405 0.09361962 -0.1634116
-0.16893826 -0.34953585 0.094624996 -0.0005303477 -0.19943598 -0.17552124 -0.005134006 -0.00028110654
-0.17762573 -0.10289023 -0.12817147 0.035016622 0.23067254 0.17531712 -0.16362584 -0.22268543
0.051758304 0.24036497 -0.012260532 -0.09201143 0.02763718 -0.14927548 0.26967847 -0.1197013
0.07397903 0.10312051 0.022605695 -0.041213494 -0.1273084 -0.17911647 0.18872316 0.1892244
0.048916947 0.09049992 0.044861104 0.10014522 -0.027453315 -0.19760317 0.07711136 0.16974638
0.077499054 0.20687026 -0.03299743 0.18092746 0.215204 0.07713133 0.17091884 0.065494
-0.065987766 -0.007419515 0.08955555 -0.0075784614 -0.25810802 0.17798543 -0.051009588 0.037447527
-0.014205524 -0.18316466 -0.12647322 -0.23761068 0.14701393 0.22450602 -0.16454719 -0.17079364
-0.052221205 -0.09142078 0.09521693 0.1341731 0.066530526 0.247677 0.24847122 0.27413696
0.015420512 -0.088336706 -0.19994515 0.0027816629 0.20321342 0.098250225 -0.05552514 0.080927804
0.16133009 0.033082403 0.023774477 -0.11747294 0.103262976 -0.17373405 -0.16563603 0.10207182
0.06677832 0.05299478 -0.15322375 -0.16806896 -0.08338131 0.02242985 0.0369921 0.24033982
-0.026155163 -0.25751606 -0.24190879 0.026672432 -0.20005487 -0.12749772 0.1206992 0.030341506
0.12329168 0.055613514 0.2380396 -0.07920448 -0.25372937 -0.111926496 0.19738859 0.07053565
0.0019160263 -0.20313124 -0.20868996 0.07971347 -0.067104496 0.18494305 -0.020320825 -0.0007341102
00000000: 61d8 51be 8c1d 7cbe d0b3 22be 92f9 a1be
00000010: a09f 053e cf66 62be 2ccb 3fbe e49a fb3d
00000020: 2fb9 84be 4ca5 713b 5ece cabd 53c5 aabd
00000030: f3aa 973d 19e7 f43c 055c f43d ce1d 52bd
00000040: f8fc 5d3e 8cbb bbbd fa5a 183e 2bc5 febd
00000050: 7a21 a43e 4d1c 10be 46fa 853e 28a8 883e
00000060: e613 3dbd bd44 37be 009c 7dbd 74a6 e2bc
00000070: 7e82 a4bb f516 d6bb 58fc 3bbe 5ccd adbd
00000080: ac5b 9f3d 784e ea3d 47d9 b33e 3299 a2bd
00000090: 2479 42be 7d80 753d 6cac c53b d1e9 12be
000000a0: 4ff7 193e 533e 44be 616a dfbd 743a a43d
000000b0: 83a8 edbd c5d8 513e efd8 b8bd c9c8 90bd
000000c0: d027 2ebe a837 d73c 6d9a a23d 8f7b fabd
000000d0: 607e e23c 96df 3a3e de36 bfbc b8b2 afbd
000000e0: 8d26 cfbd 8ad2 a6bd 9f20 883e e941 96bc
000000f0: d9bc 1b3e 51a6 b2bd ad67 f63c 99b7 0c3e
00000100: 26be 463d f75e 023e 4b35 9abe 36be 87be
00000110: 69b2 1d3e 3877 d1bd c154 82bd e352 873e
00000120: 7832 0ebe 140c 2fbe 2c0d 7c3e 08c9 933d
00000130: f994 cbbd ceb5 53be 6cc8 163d 1f3c 4cbe
00000140: 9f13 6f3c f076 843c c258 083c 9b5a 7a3e
00000150: 5e45 75bc 6804 f1bd fa6e 903e 0107 afbd
00000160: 9f86 e93d 8650 b2bd f377 893e 9f89 66be
00000170: bf1d 9f3e a09c 41bd d96e d0bd 1c62 033e
00000180: 9618 ba3d e839 bebd 6246 1bbc edc2 cbbd
00000190: dfad 39bc b3f1 163e 3b45 67be bde8 973d
000001a0: 529c 6a3e 8108 ea3d 150b 493e 4772 37bd
000001b0: 5cfc e23c cadf 763e 409f dcbd 3916 3b3e
000001c0: 6440 a7bd 94e2 58be 4eb4 4cbe 772d aa3b
000001d0: 41b8 4dbc 8d20 81be 9cde e93d eb21 ce3d
000001e0: a2d5 153e 0a99 a6bd 0533 f6bd 9dbc ffbd
000001f0: d100 b23d a9e1 8dbe f41d b9bd bde5 163d
00000200: cc6e 083d 1e4e 063e 6bc5 8abe 9c96 25be
00000210: c942 13be 9a02 ad3c a5bb bf3d 5f55 27be
00000220: 27fe 2cbe 5df6 b2be c0ca c13d 0807 0bba
00000230: f238 4cbe d7bb 33be 2a3b a8bb 7b61 93b9
00000240: 85e3 35be 1db8 d2bd 623f 03be 976d 0f3d
00000250: 6c35 6c3e 5586 333e 888d 27be a607 64be
00000260: 8400 543d 3c22 763e 66e0 48bc 7d70 bcbd
00000270: 5e67 e23c acdb 18be 4c13 8a3e f525 f5bd
00000280: 5182 973d d930 d33d 942f b93c 7bcf 28bd
00000290: 225d 02be 4f6a 37be a540 413e 0bc4 413e
000002a0: 235d 483d 0658 b93d 47c0 373d f018 cd3d
000002b0: c6e5 e0bc 7c58 4abe 90ec 9d3d ffd1 2d3e
000002c0: d3b7 9e3d ccd5 533e 5028 07bd 0c45 393e
000002d0: 705e 5c3e 08f7 9d3d 5905 2f3e b821 863d
000002e0: 9824 87bd 671f f3bb e668 b73d be54 f8bb
000002f0: bc26 84be d041 363e 6eef 50bd 9462 193d
00000300: 49be 68bc 848f 3bbe 3282 01be 3750 73be
00000310: d28a 163e e8e4 653e 0f7f 28be 87e4 2ebe
00000320: e7e5 55bd d13a bbbd 1801 c33d ac64 093e
00000330: 2841 883d 0a9f 7d3e 3d6f 7e3e ae5b 8c3e
00000340: 51a6 7c3c e0e9 b4bd 6cbe 4cbe 8f4c 363b
00000350: 2e17 503e 6a37 c93d 546e 63bd 7abd a53d
00000360: b733 253e 6a81 073d b1c2 c23c a795 f0bd
00000370: 8a7b d33d 57e7 31be 7e9c 29be 080b d13d
00000380: 12c3 883d 0e11 593d b0e6 1cbe 451a 2cbe
00000390: d2c3 aabd cebe b73c 0785 173d a41b 763e
000003a0: 5a43 d6bc 25d9 83be f0b6 77be 2580 da3c
000003b0: 2fdb 4cbe c38e 02be 2431 f73d c08e f83c
000003c0: 5980 fc3d ffca 633d a7c0 733e f535 a2bd
000003d0: d1e8 81be b839 e5bd 3c20 4a3e ff74 903d
000003e0: 2d23 fb3a a301 50be d2b2 55be d140 a33d
000003f0: 156e 89bd b661 3d3e dc77 a6bc 4d71 40ba

MaskedMultiheadSelfAttention.value.bias f4 [18]
0.08465021 0.10119455 0.12885357 -0.004885533 -0.12250852 0.02500528 -0.17399123 -0.08620438
-0.051981647 0.25051814 -0.20063114 0.076125 0.21697919 -0.2392581 -0.1547268 -0.07113409
-0.13830267 -0.29790545
00000000: 175d ad3d 173f cf3d 31f2 033e d216 a0bb
00000010: bfe5 fabd dfd7 cc3c c22a 32be ec8b b0bd
00000020: b5ea 54bd ea43 803e 4072 4dbe 6de7 9b3d
00000030: cb2f 5e3e 1300 75be b470 1ebe c0ae 91bd
00000040: 379f 0dbe 1087 98be

MaskedMultiheadSelfAttention.out_proj.weight f4 [18, 18]
-0.12920402 0.088687696 -0.17457059 -0.18199335 -0.07392032 0.2376622 -0.120636806 0.0870592
-0.13423549 -0.012131929 -0.11321394 0.17538385 -0.029320959 -0.19108264 -0.09292628 0.100024864
0.19287182 0.08452049 -0.21405835 0.09173751 0.10232018 -0.282025 -0.18325277 0.017204909
-0.06304685 0.294826 -0.20469826 -0.035232376 -0.13358115 -0.14167742 0.24484529 -0.07253407
-0.024927275 -0.13073951 -0.31569457 0.0143439155 0.106532775 0.056845512 0.13704646 -0.12224773
0.07537757 0.15384667 0.121263795 -0.054512393 0.17809138 0.20715551 0.054258328 0.015210717
0.090443365 -0.19808666 -0.17542626 -0.04322393 -0.14000157 0.23224747 0.10130539 -0.20327617
0.05403813 -0.16530629 -0.20679696 0.045052305 0.12424094 -0.04194671 -0.03540685 0.1383984
0.07883218 -0.029725544 -0.1253742 -0.23145688 -0.10118211 0.030767724 -0.057110004 0.19726382
-0.13438128 0.05331472 0.080839954 -0.07721789 -0.21488804 -0.14168422 0.25296175 0.2730851
1.0728004e-05 -0.014911826 -0.12343263 0.1463006 0.19566266 -0.017803296 0.05365262 0.10048311
-0.16431245 -0.1366775 -0.060825225 0.104740605 0.24827158 0.18068881 0.21221071 -0.10978225
0.14865342 -0.14381497 0.07229373 -0.0017942804 0.18271412 0.15752617 0.17506102 -0.12069942
-0.06698807 -0.112681486 -0.1527174 0.2486644 0.32319704 0.0049585025 0.040263094 0.08401308
0.119189784 0.33917952 -0.17117141 -0.15409705 0.006787876 -0.18297067 -0.06416999 -0.2754876
-0.06062376 0.28447336 0.10555155 0.3801543 -0.062021606 0.26237738 0.12850352 0.07075285
0.01871074 0.25056875 -0.022729592 0.15631443 -0.19346958 -0.16513714 -0.021821123 0.0032557547
0.057870355 0.21588087 0.08732858 0.14358674 0.18920502 0.101082236 0.16522078 -0.17632483
0.23494674 -0.01686435 -0.1066918 -0.26992902 -0.19175379 -0.17531833 0.30897948 0.24017751
-0.14374647 0.0993879 0.010357143 -0.06415558 -0.0015503532 0.12509075 0.17608246 0.32099423
0.029619921 0.21275735 0.107853875 -0.07437855 -0.016641358 -0.23041247 0.07879057 -0.2107759
0.3064581 0.22944824 0.11120223 -0.07912695 0.1430888 0.115741394 0.1407512 0.040311996
-0.014532053 0.0116657065 -0.1649502 0.04363975 -0.2206881 0.09610841 -0.10865049 -0.10006276
-0.066364124 0.25944352 -0.14232098 -0.32810345 -0.1418121 -0.08494013 0.2116061 -0.07437439
-0.25723043 -0.1413484 -0.043598067 0.08935528 -0.15486299 0.007886125 0.026416387 -0.179094
-0.21813089 -0.09111378 -0.06138029 -0.23562138 0.072395995 0.34473267 -0.1000571 -0.1492377
-0.014635213 -0.12175118 -0.12485348 0.08698313 0.12547112 0.035700478 -0.025850324 0.17921299
-0.30812678 -0.2947888 -0.2935541 -0.24495387 -0.052223474 -0.23742613 0.20667982 -0.05582794
-0.18685079 0.16447201 -0.15041551 0.11098072 -0.051031876 -0.13476168 -0.09705523 -0.11690599
0.08727828 -0.23023139 0.09525629 -0.03177355 0.13416494 0.08109393 -0.0571468 -0.054433577
0.06676127 -0.045619324 -0.119085595 0.057641096 -0.12741818 0.15703887 0.19777262 -0.17402573
-0.11662234 0.051440835 -0.11760061 0.16319582 -0.041569244 0.2205934 0.27154914 0.09207338
00000000: 0f4e 04be e5a1 b53d a2c2 32be 775c 3abe
00000010: 8963 97bd b85d 733e 6e10 f7bd 184c b23d
00000020: 0775 09be 00c5 46bc b6dc e7bd d397 333e
00000030: 8232 f0bc 2bab 43be 2250 bebd d6d9 cc3d
00000040: 3180 453e 1419 ad3d 1d32 5bbe e0e0 bb3d
00000050: 3e8d d13d 9565 90be 9da6 3bbe 4ff1 8c3c
00000060: b51e 81bd 6ff3 963e 6c9c 51be d34f 10bd
00000070: 7fc9 08be e313 11be b9b8 7a3e be8c 94bd
00000080: 4934 ccbc 94e0 05be b8a2 a1be be02 6b3c
00000090: db2d da3d d7d6 683d e855 0c3e 055d fabd
000000a0: 8e5f 9a3d fb89 1d3e 2759 f83d 6348 5fbd
000000b0: 965d 363e 9320 543e fb3d 5e3d 5f36 793c
000000c0: 5f3a b93d 3bd7 4abe f1a2 33be 930b 31bd
000000d0: 925c 0fbe 48d2 6d3e 3379 cf3d a127 50be
000000e0: 1657 5d3d 0d46 29be 95c2 53be c488 383d
000000f0: 0972 fe3d 50d0 2bbd c606 11bd 4fb8 0d3e
00000100: c472 a13d fc82 f3bc 1862 00be 0803 6dbe
00000110: 9138 cfbd 980c fc3c 2eec 69bd 87ff 493e
00000120: 3f9b 09be 8960 5a3d 6b8f a53d 6a24 9ebd
00000130: 9c0b 5cbe ab15 11be 3484 813e cfd1 8b3e
00000140: 6dfc 3337 bb50 74bc 3fca fcbd d3cf 153e
00000150: cb5b 483e 38d8 91bc dac2 5b3d 17ca cd3d
00000160: 8641 28be 30f5 0bbe df23 79bd 3e82 d63d
00000170: e83a 7e3e 7d06 393e c44d 593e 84d5 e0bd
00000180: 9a38 183e 3b44 13be bc0e 943d 0f2e ebba
00000190: 6919 3b3e 8a4e 213e 3243 333e 4231 f7bd
000001a0: 0b31 89bd 8dc5 e6bd f361 1cbe e1a1 7e3e
000001b0: 157a a53e ef7a a23b eaea 243d 0d0f ac3d
000001c0: c619 f43d f0a8 ad3e 8f47 2fbe 9ecb 1dbe
000001d0: d56c de3b aa5c 3bbe 8e6b 83bd b60c 8dbe
000001e0: 9f50 78bd 7ea6 913e 692b d83d 96a3 c23e
000001f0: 5e0a 7ebd 5456 863e 6d96 033e dfe6 903d
00000200: 4447 993c 8c4a 803e 6933 babc e410 203e
00000210: e41c 46be b619 29be 36c2 b2bc 805e 553b
00000220: 7709 6d3d e00f 5d3e 54d9 b23d 6708 133e
00000230: f6be 413e 3404 cf3d a32f 293e 7f8e 34be
00000240: e195 703e 1b27 8abc 3b81 dabd 2334 8abe
00000250: 1b5b 44be a686 33be 8f32 9e3e 18f1 753e
00000260: 4632 13be e28b cb3d 02b1 293c 0064 83bd
00000270: 3935 cbba ca17 003e f64e 343e 5b59 a43e
00000280: 7aa5 f23c 10dd 593e 7ee2 dc3d c853 98bd
00000290: 7553 88bc 3ff1 6bbe f35c a13d a3d5 57be
000002a0: 13e8 9c3e 7bf4 6a3e ffbd e33d 4f0d a2bd
000002b0: df85 123e d309 ed3d 1521 103e 311e 253d
000002c0: d917 6ebc 8521 3f3c b5e8 28be 98bf 323d
000002d0: 10fc 61be 7cd4 c43d 2684 debd b4ed ccbd
000002e0: eae9 87bd c8d5 843e 97bc 11be 2dfd a7be
000002f0: 3137 11be 17f5 adbd 45af 583e 9a51 98bd
00000300: b5b3 83be a3bd 10be e393 32bd e7ff b63d
00000310: 6794 1ebe ce34 013c 2e67 d83c 6b64 37be
00000320: b45d 5fbe dd99 babd e669 7bbd bb46 71be
00000330: 5a44 943d cd80 b03e bdea ccbd c5d1 18be
00000340: 88c8 6fbc af58 f9bd 2eb3 ffbd 3624 b23d
00000350: 807b 003e aa3a 123d 0fc4 d3bc 9c83 373e
00000360: cbc2 9dbe 8fee 96be b94c 96be 30d5 7abe
00000370: 48e8 55bd d61f 73be e0a3 533e d7ab 64bd
00000380: d055 3fbe 5a6b 283e 8606 1abe dc49 e33d
00000390: cd06 51bd f7fe 09be e4c4 c6bd 686c efbd
000003a0: f4be b23d c7c1 6bbe bb15 c33d fb24 02bd
000003b0: 8962 093e 9314 a63d c312 6abd bef5 5ebd
000003c0: 22ba 883d 54db 3abd 26e3 f3bd 1219 6c3d
000003d0: e979 02be ccce 203e e884 4a3e cd33 32be
000003e0: b2d7 eebd a0b3 523d 97d8 f0bd ce1c 273e
000003f0: 8344 2abd 3ce3 613e 7d08 8b3e f890 bc3d

MaskedMultiheadSelfAttention.out_proj.bias f4 [18]
0.12999037 -0.07581018 0.09008807 -0.0505089 -0.077032425 -0.23033698 -0.035380255 0.24882054
-0.105719626 -0.09148525 0.00077927264 -0.27343997 -0.059280954 -0.04304465 0.027935134 -0.12810706
0.19067942 0.07784478
00000000: 321c 053e 5e42 9bbd 1880 b83d 6ce2 4ebd
00000010: 2dc3 9dbd 75dd 6bbe e3ea 10bd d0ca 7e3e
00000020: 8883 d8bd 9e5c bbbd 1a48 4c3a 5300 8cbe
00000030: 96d0 72bd 964f 30bd 39d8 e43c 7f2e 03be
00000040: 7741 433e 166d 9f3d

WindowBasedCrossAttention.W_Q.weight f4 [18, 18]
0.20272584 -0.112461485 0.036353003 0.26893008 0.039508566 0.14208382 -0.18800846 -0.110061355
0.037646674 -0.08555063 0.20899479 0.025792003 -0.21966189 -0.121228 0.16386203 -0.22890799
0.23813953 0.08445552 0.053743828 0.009215953 0.03851411 -0.16400415 -0.08891698 -0.17508103
-0.08787397 -0.10394818 0.14587039 -0.07830971 -0.25543246 0.07101105 0.107596405 -0.046990916
-0.13535367 -0.049317263 -0.18675187 0.050630167 -0.019137295 0.08032897 -0.16016565 0.010379319
0.44519883 -0.24796185 -0.164267 0.107647225 0.11359466 -0.012582794 -0.3593298 -0.09843488
-0.012191316 -0.2538268 0.10523302 -0.32632446 -0.16306904 -0.17606077 0.11316954 -0.028530361
0.18758954 0.25267226 -0.29854652 -0.11153474 0.06403037 0.25490052 -0.05750291 0.15008262
-0.06899253 0.109151736 0.11662204 0.20149775 0.19517669 0.018959157 0.069498695 0.09448252
0.25531685 -0.21752428 0.079034 -0.14842781 -0.10416168 -0.13244133 -0.03677338 -0.032520577
0.2428629 0.119073 0.2546697 0.09906277 -0.1787914 -0.099849865 0.1385459 -0.032447338
0.08988743 0.016987983 -0.0095087 0.0037810507 -0.084927686 0.07711416 -0.23436964 -0.019316403
0.08022785 -0.097210415 -0.2726086 -0.1025884 0.034472827 0.01571189 -0.025920132 0.11493714
-0.101237826 0.19838247 0.16803221 -0.10753611 -0.10218517 0.073021345 -0.07725338 -0.24457568
0.14870213 -0.008035622 -0.22884583 0.114973016 -0.17890519 -0.22109868 -0.060989585 -0.053925138
-0.18241121 0.20232049 -0.0038496929 0.040665686 0.034598302 -0.13852343 0.09325056 -0.14523461
0.1989969 0.18817194 -0.0007165349 -0.11395374 -0.057718832 0.14305912 -0.15965967 -0.033601344
0.071343526 -0.12504815 -0.097455986 -0.13576508 -0.19665001 0.26420864 0.14659275 -0.17786486
-0.037247818 -0.0050804163 0.005622555 -0.040703133 -0.16202371 0.13742691 0.23524137 0.02821789
0.08880687 -0.022653032 0.08968024 -0.11445186 0.1618874 0.21843308 -0.27336487 -0.041593097
0.22789377 -0.1839795 0.030990595 0.0692975 0.1658889 0.055179015 -0.15631118 -0.23841915
0.17054187 0.06430676 0.027371434 0.19811098 0.10647405 -0.17369153 0.20543984 0.03444227
0.15558124 0.27910244 -0.027646553 -0.1502733 0.09206263 0.0068762274 -0.029380266 0.1492844
0.19323307 0.013862729 -0.027883062 0.21655948 0.18833824 -0.20929673 -0.025015723 -0.044830948
-0.07748858 0.07418217 0.23542532 -0.045038246 0.093540594 -0.1268618 -0.12810212 0.069746904
0.09942616 0.15246382 0.11208407 0.26605624 -0.045644127 0.11875247 0.2334763 -0.18263926
0.024269404 0.29928043 -0.09749776 0.2483317 0.078020506 -0.0548418 -0.021706922 -0.009282038
0.12291298 -0.07529463 0.18989658 -0.025873926 -0.2586678 0.005579579 -0.21985093 0.25105807
-0.031093184 0.13500555 0.28176233 -0.235365 0.18516351 -0.13705727 0.20570943 0.21320929
-0.12072947 0.1580119 -0.22925127 -0.14906904 -0.10757123 0.0081919115 0.23789637 0.15688768
0.19801939 -0.346559 0.27790314 0.19120613 -0.02547135 0.05875474 -0.06464918 0.17859976
0.06739686 -0.090541296 0.08311509 0.0021162769 -0.19727966 0.23207961 -0.19882023 0.0047241445
00000000: 5d97 4f3e 3552 e6bd e3e6 143d 34b1 893e
00000010: bcd3 213d 6c7e 113e 4a85 40be d967 e1bd
00000020: 6633 1a3d 2b35 afbd bb02 563e c049 d33c
00000030: 0cef 60be 6346 f8bd 73cb 273e db66 6abe
00000040: d9da 733e 04f7 ac3d 7d22 5c3d 82fe 163c
00000050: f9c0 1d3d b4f0 27be 1b1a b6bd 7148 33be
00000060: 45f7 b3bd c9e2 d4bd 0c5f 153e d760 a0bd
00000070: 0bc8 82be 3e6e 913d 815b dc3d 8c79 40bd
00000080: 279a 0abe e600 4abd e23b 3fbe 9461 4f3d
00000090: d1c5 9cbc 8483 a43d 7702 24be 050e 2a3c
000000a0: 1af1 e33e b6e9 7dbe 9c35 28be 2676 dc3d
000000b0: 51a4 e83d 1028 4ebc 13fa b7be 3a98 c9bd
000000c0: 16be 47bc 96f5 81be 6984 d73d 0014 a7be
000000d0: 92fb 26be 4649 34be 6fc5 e73d 81b8 e9bc
000000e0: 7917 403e 425e 813e 17db 98be 536c e4bd
000000f0: 5b22 833d 5282 823e 2c88 6bbd 42af 193e
00000100: f54b 8dbd f28a df3d 89d7 ee3d 6d55 4e3e
00000110: 66dc 473e 3c50 9b3c 5555 8e3d 0d80 c13d
00000120: e4b8 823e afbe 5ebe 94dc a13d 76fd 17be
00000130: b852 d5bd b39e 07be af9f 16bd 4c34 05bd
00000140: 0db1 783e 8cdc f33d 1164 823e 6ce1 ca3d
00000150: 1815 37be 167e ccbd fade 0d3e 80e7 04bd
00000160: e716 b83d 622a 8b3c 61ca 1bbc 81cb 773b
00000170: 91ee adbd 07ee 9d3d 98fe 6fbe 6f3d 9ebc
00000180: 804e a43d 4116 c7bd 5b93 8bbe de19 d2bd
00000190: 6133 0d3d 39b6 803c 7556 d4bc 2a64 eb3d
000001a0: c755 cfbd c624 4b3e a310 2c3e e43b dcbd
000001b0: 7546 d1bd 378c 953d 0537 9ebd 0c72 7abe
000001c0: 5f45 183e d7a7 03bc 9056 6abe f976 eb3d
000001d0: ec32 37be b167 62be 37d0 79bd 9be0 5cbd
000001e0: 01ca 3abe 1a2d 4f3e 214b 7cbb 1091 263d
000001f0: f3b6 0d3d 16d9 0dbe 26fa be3d 62b8 14be
00000200: d8c5 4b3e 25b0 403e d8d5 3bba 9460 e9bd
00000210: 956a 6cbd 177e 123e d37d 23be 90a1 09bd
00000220: 8e1c 923d 9f0c 00be 0197 c7bd 0006 0bbe
00000230: 9f5e 49be 5b46 873e 691c 163e 3522 36be
00000240: 2b91 18bd 9f79 a6bb 693d b83b 54b8 26bd
00000250: 8be9 25be a4b9 0c3e 1de3 703e 3429 e73c
00000260: 60e0 b53d da92 b9bc 46aa b73d bd65 eabd
00000270: d0c5 253e ecac 5f3e 7bf6 8bbe 865d 2abd
00000280: fc5c 693e 1f65 3cbe fddf fd3c d9eb 8d3d
00000290: c8de 293e 6403 623d 0a10 20be 2624 74be
000002a0: 87a2 2e3e 43b3 833d 0f3a e03c 9bdd 4a3e
000002b0: 110f da3d 31dc 31be d25e 523e 5613 0d3d
000002c0: b050 1f3e 84e6 8e3e 067b e2bc 3ee1 19be
000002d0: 558b bc3d fa51 e13b e2ae f0bc 02de 183e
000002e0: e4de 453e 8020 633c 056b e4bc c5c1 5d3e
000002f0: bddb 403e e251 56be c6ed ccbc a8a0 37bd
00000300: 55b2 9ebd d2ec 973d 5613 713e 067a 38bd
00000310: 3692 bf3d 0fe8 01be 342d 03be 77d7 8e3d
00000320: f19f cb3d 7a1f 1c3e 558c e53d 8638 883e
00000330: 56f5 3abd 7f34 f33d 6914 6f3e c905 3bbe
00000340: a1d0 c63c 493b 993e e8ac c7bd aa4a 7e3e
00000350: 37c9 9f3d cca1 60bd b7d2 b1bc b013 18bc
00000360: cdb9 fb3d 1234 9abd 4074 423e 8ef5 d3bc
00000370: 1b70 84be e7d4 b63b 9a20 61be af8a 803e
00000380: 22b7 febc e53e 0a3e 2743 903e 8603 71be
00000390: 819b 3d3e be58 0cbe 7ea5 523e 8953 5a3e
000003a0: 0341 f7bd dfcd 213e d8c0 6abe 8ea5 18be
000003b0: 4e4e dcbd 5e37 063c 1b9b 733e 2aa7 203e
000003c0: 98c5 4a3e 2e70 b1be 5249 8e3e 8acb 433e
000003d0: 4ba9 d0bc cfa8 703d ca66 84bd dbe2 363e
000003e0: 5d07 8a3d b76d b9bd 3f38 aa3d 3cb1 0a3b
000003f0: ae03 4abe 47a6 6d3e 8897 4bbe ffcc 9a3b

WindowBasedCrossAttention.W_K.weight f4 [18, 18]
0.07890267 0.10392793 -0.014423291 0.046803646 -0.06952008 0.103200555 0.010769713 0.118424304
0.22825891 -0.11541835 -0.24680239 0.08583514 -0.23590393 0.13516302 0.034920495 0.06209984
-0.1087934 -0.106519796 0.003748625 -0.15326984 -0.22214647 -0.190784 -0.13471293 -0.18342416
0.08319585 -0.26532608 0.038269073 -0.031464256 0.23863244 0.09991765 -0.14618106 -0.08123557
-0.08783734 -0.036741424 0.09823345 0.10763002 -0.10636833 -0.021760749 -0.009677949 0.069225796
0.004301798 -0.17924657 -0.18509842 0.04544084 -0.1624257 -0.20865417 0.27131966 0.026213704
0.2187393 0.07987358 0.17185098 0.18396662 0.21119213 -0.049903393 -0.046230484 0.1840031
0.044379883 -0.076069705 0.1592641 0.123514354 0.10815064 0.1023626 0.1590502 0.1622862
0.08979579 -0.050327625 -0.27838638 0.17829166 -0.12080281 -0.15583736 0.038702074 0.20434798
-0.17486243 0.042116083 0.08690138 0.110757045 0.07836465 0.26474375 0.08060516 -0.040185183
-0.0043441732 0.12404058 -0.055266727 0.24658993 -0.13740022 0.2992334 0.08934803 0.01893316
-0.08401697 -0.045095198 0.07593259 -0.074076645 0.16199307 -0.15747327 -0.21889295 0.14565982
-0.18596534 0.20519345 0.068207934 0.049370185 -0.17854466 0.081668355 0.030863032 -0.15465695
-0.23194396 0.13332725 0.07726458 -0.1793988 0.0108839385 0.09704978 0.20652597 -0.3145761
0.1369731 -0.08448824 -0.07417263 0.20503871 -0.113187626 -0.13809186 -0.16747767 -0.15913716
0.104044564 -0.07298518 -0.08693274 0.21045811 0.062638015 -0.10788928 -0.0816972 0.011443321
-0.022180472 -0.22224537 0.09138489 0.009121892 0.060766976 0.18909094 -0.1712613 -0.26309195
0.0048338077 -0.059250295 0.080821045 -0.11449413 0.24457942 -0.09409099 0.015194823 0.16514343
0.21190298 -0.08863473 -0.16206753 -0.16210555 -0.18372984 0.0030591115 0.28967026 0.15705653
-0.16377768 0.114418186 -0.20905292 -0.092162415 -0.14515382 -0.067746304 0.07835786 -0.22108859
-0.10176954 -0.1999806 0.05395131 0.17218846 0.08852583 -0.13487622 0.18544844 0.1839208
-0.034166984 0.1918265 0.07645861 0.14104849 0.12695456 -0.0022163412 -0.13839974 0.16663411
0.09309731 0.24615051 0.01949849 -0.009776331 0.12219249 0.03989108 -0.002355558 -0.056789823
-0.08992465 -0.15307803 0.28569403 0.048530083 -0.15229568 -0.097632594 -0.1381424 0.14322898
-0.09503128 0.13519648 0.20085542 0.26152006 -0.17354286 -0.06582683 0.19732569 0.07367949
0.21511325 0.15694043 0.05460167 -0.17696974 0.2580959 -0.23334153 -0.10520117 0.22401689
0.2019128 0.019955054 -0.11408184 0.012210526 -0.22159559 -0.15139614 0.08043731 -0.12532042
0.039473478 0.049993183 -0.20148043 0.011173459 -0.094120845 0.037394013 -0.10634795 -0.05388539
0.13595513 -0.14920372 -0.24341792 -0.03488049 -0.23378053 0.20118608 0.30154958 0.19018674
0.15077332 0.23473735 0.07569956 -0.10370851 -0.013554332 -0.016257308 0.1421163 0.13413009
-0.02539672 -0.06112456 0.18334803 -0.05457448 0.14518586 0.24811156 0.07367949 0.07141359
-0.17193525 -0.12324814 -0.15571862 0.0049968273 -0.060548615 -0.10842002 -0.15668744 0.3207759
00000000: b997 a13d 2bd8 d43d ab4f 6cbc 2eb5 3f3d
00000010: 8b60 8ebd d05a d33d 7373 303c 7188 f23d
00000020: b4bc 693e 7560 ecbd c4b9 7cbe 55ca af3d
00000030: cd90 71be 2d68 0a3e cb08 0f3d 675c 7e3d
00000040: 13cf debd 0d27 dabd 7eab 753b c5f2 1cbe
00000050: 5d7a 63be e25c 43be 30f2 09be 8bd3 3bbe
00000060: 9662 aa3d d2d8 87be 08c0 1c3d aae0 00bd
00000070: 105c 743e a0a1 cc3d 7db0 15be d65e a6bd
00000080: 10e4 b3bd 2d7e 16bd 9e2e c93d 216d dc3d
00000090: a4d7 d9bd 9943 b2bc 4390 1ebc 41c6 8d3d
000000a0: 19f6 8c3b 6a8c 37be 718a 3dbe 2d20 3a3d
000000b0: ec52 26be 70a9 55be 69ea 8a3e 1fbe d63c
000000c0: 32fd 5f3e c294 a33d b4f9 2f3e bf61 3c3e
000000d0: c042 583e 8067 4cbd 2d5c 3dbd 4f6b 3c3e
000000e0: aec7 353d 6fca 9bbd 2116 233e 18f5 fc3d
000000f0: 157e dd3d 7ca3 d13d 0ede 223e 5b2e 263e
00000100: dbe6 b73d 5724 4ebd a988 8ebe 1792 363e
00000110: 7767 f7bd d493 1fbe 1186 1e3d 9940 513e
00000120: 230f 33be ea81 2c3d 5af9 b13d 97d4 e23d
00000130: a57d a03d 7e8c 873e 5114 a53d 3899 24bd
00000140: 9159 8ebb fd08 fe3d 5d5f 62bd 1282 7c3e
00000150: a5b2 0cbe 1f35 993e 1afc b63d b719 9b3c
00000160: 1711 acbd beb5 38bd 8c82 9b3d 7fb5 97bd
00000170: 83e1 253e ac40 21be 7925 60be d927 153e
00000180: b36d 3ebe 3b1e 523e 9ab0 8b3d 6438 4a3d
00000190: 69d4 36be bd41 a73d 78d4 fc3c 645e 1ebe
000001a0: b882 6dbe f086 083e e43c 9e3d 52b4 37be
000001b0: 8c52 323c 09c2 c63d 8b7b 533e 1e10 a1be
000001c0: ad42 0c3e 2c08 adbd d2e7 97bd abf5 513e
000001d0: eace e7bd f467 0dbe 447f 2bbe daf4 22be
000001e0: 5115 d53d 4179 95bd cb09 b2bd 5582 573e
000001f0: 5c48 803d 0ef5 dcbd dd50 a7bd c47c 3b3c
00000200: d2b3 b5bc 4a94 63be 0028 bb3d fd73 153c
00000210: cbe6 783d 0ea1 413e 1f5f 2fbe fdb3 86be
00000220: eb64 9e3b 70b0 72bd 8185 a53d e67b eabd
00000230: 0773 7a3e c7b2 c0bd b5f3 783c 5c1b 293e
00000240: 18fd 583e 2086 b5bd 08f5 25be fffe 25be
00000250: ad23 3cbe 607b 483b a94f 943e 6dd3 203e
00000260: 56b5 27be 1554 ea3d f811 56be a6bf bcbd
00000270: 34a3 14be 93be 8abd 167a a03d 0c65 62be
00000280: 8c6c d0bd b7c7 4cbe 0dfc 5c3d 2c52 303e
00000290: 084d b53d fe1c 0abe 32e6 3d3e bc55 3c3e
000002a0: aef2 0bbd 2b6e 443e 5596 9c3d 046f 103e
000002b0: 6000 023e 0940 11bb a9b8 0dbe 22a2 2a3e
000002c0: cda9 be3d e10e 7c3e 4cbb 9f3c e72c 20bc
000002d0: 0e40 fa3d d464 233d b55f 1abb 729c 68bd
000002e0: 6a2a b8bd 7dc0 1cbe 7d46 923e 7bc7 463d
000002f0: 66f3 1bbe 99f3 c7bd 3475 0dbe 9eaa 123e
00000300: c29f c2bd f270 0a3e 0bad 4d3e f5e5 853e
00000310: 38b5 31be 38d0 86bd bf0f 4a3e 46e5 963d
00000320: a646 5c3e feb4 203e 00a6 5f3d 8e37 35be
00000330: 2525 843e 15f1 6ebe b673 d7bd af64 653e
00000340: 3bc2 4e3e c878 a33c bda3 e9bd a80e 483c
00000350: f4e9 62be 9707 1bbe 51bc a43d ff53 00be
00000360: f1ae 213d a7c5 4c3d e350 4ebe e210 373c
00000370: 6ec2 c0bd 772a 193d f4cc d9bd edb6 5cbd
00000380: d237 0b3e dcc8 18be 8c42 79be d8de 0ebd
00000390: 2a64 6fbe b903 4e3e b564 9a3e 50c0 423e
000003a0: 5264 1a3e fd5e 703e 5f08 9b3d 2165 d4bd
000003b0: fd12 5ebc 0c2e 85bc ef86 113e 6659 093e
000003c0: c80c d0bc bf5d 7abd 96bf 3b3e 7d89 5fbd
000003d0: 9aab 143e f510 7e3e 46e5 963d 4a41 923d
000003e0: cb0f 30be 8569 fcbd b474 1fbe 6dbc a33b
000003f0: d301 78bd 510b debd ac72 20be bd3c a43e

WindowBasedCrossAttention.W_V.weight f4 [18, 18]
0.09278527 -0.06390334 0.04632573 -0.11092955 0.10575722 0.048039466 0.07826963 -0.15432496
0.082107715 -0.19008082 -0.17016545 0.16378248 -0.28610784 0.12405797 0.10341511 0.24589884
0.07315408 0.26640132 -0.06357867 -0.08915782 0.0790272 -0.0391169 0.17015956 0.056514286
-0.05982505 0.05994819 0.17926992 -0.06088905 0.0977369 -0.13042258 -0.1492937 -0.04198445
-0.12397628 -0.033637617 -0.023800531 0.1856299 0.0050701615 -0.0022496183 0.15147476 -0.060812015
0.16372167 -0.26238415 -0.18412201 0.05634488 0.09530331 0.19121715 0.2243285 0.016552068
0.19378276 -0.022214998 -0.31497207 0.09166662 0.28270033 -0.02875851 -0.12548946 0.14752635
-0.11268358 -0.05107894 0.26785648 -0.25665396 -0.26332355 -0.24425375 0.40446612 0.45616877
-0.39189813 0.033674985 0.22336964 0.21503194 -0.37552112 -0.45709208 0.1550283 -0.17800927
0.007850101 0.10120303 0.2678832 -0.24260546 -0.09614563 0.093303286 0.20148332 -0.021555223
0.054804705 0.13621013 -0.05914997 -0.0061282422 -0.24305102 0.02831829 0.22662695 -0.09991617
0.04116526 0.23226292 -0.10671229 -0.111881875 0.10829303 -0.10572354 0.05433239 -0.09937275
-0.049465355 0.23708953 -0.07472258 0.01683651 0.26082385 0.09403296 -0.10997476 0.08618422
0.12663087 0.3410455 0.17309783 -0.05271251 0.14340846 0.01352601 -0.067830056 -0.044444297
-0.19094011 -0.07776589 0.28660297 0.14456408 -0.078381345 -0.16156724 -0.034908596 -0.20267309
-0.14905465 -0.13311692 0.03082559 0.25762376 -0.2301493 0.028184298 0.04174466 -0.16551399
-0.025519317 -0.19139254 -0.1904113 0.39982876 0.47397307 0.030014507 0.21081218 -0.02917645
-0.13375425 0.19050089 -0.48047373 -0.012279926 0.050905626 -0.0035668465 -0.24061342 0.2547286
-0.08120023 -0.13288812 0.16143434 -0.2381734 -0.09295567 0.2684028 0.15183325 0.08280613
-0.13730755 -0.31154644 -0.0029951688 -0.1860152 -0.13923855 0.009845305 -0.031907316 -0.107032426
0.09254849 -0.00010340807 0.34751976 -0.23898129 -0.018886007 -0.20889457 -0.005072828 0.08377952
-0.1633238 0.18951716 -0.28835842 -0.10871357 0.3075843 -0.33063853 0.17513926 -0.32855842
0.05342823 0.096048705 -0.06387324 -0.1815444 -0.16551207 0.23318143 0.09046822 0.3532366
0.1584874 -0.26552108 -0.006754347 -0.02834689 0.14135326 0.051972996 -0.23841554 0.3017618
0.2680969 0.034080368 -0.08906486 0.12423443 0.15953901 0.023688477 0.048406716 -0.18396915
0.22971931 -0.021236278 -0.25287774 0.13518165 0.09732646 0.03294458 -0.12304887 -0.31236124
-0.067006454 -0.04917397 -0.24858664 0.19643457 0.04135423 0.2539277 -0.086786106 0.086763486
0.041874237 -0.27277684 0.06460167 0.08838506 -0.18676752 0.06410954 -0.07209429 0.13598417
-0.42519587 -0.22724938 0.34835884 -0.35749778 -0.22364937 0.09663898 0.21985388 0.28455576
0.021998417 -0.10614859 0.12068951 0.025217324 -0.2527519 -0.1184919 0.25564256 -0.3007828
-0.11112296 -0.24204352 0.017152064 0.24488337 -0.27387857 0.002080542 0.30568978 -0.16386
-0.1177374 -0.26102486 -0.06426338 -0.32695818 -0.088948786 0.085419565 -0.17349328 0.010226914
00000000: 3406 be3d c1df 82bd 0cc0 3d3d 082f e3bd
00000010: 3e97 d83d 08c5 443d d44b a03d 5d07 1ebe
00000020: 1728 a83d 8ca4 42be da3f 2ebe 98b6 273e
00000030: ba7c 92be 1b12 fe3d 4dcb d33d e8cc 7b3e
00000040: ced1 953d c165 883e 8935 82bd 6098 b6bd
00000050: 03d9 a13d 0b39 20bd 4f3e 2e3e 867b 673d
00000060: 1d0b 75bd 3c8c 753d 8992 373e cc66 79bd
00000070: 492a c83d 7f8d 05be 73e0 18be e3f7 2bbd
00000080: 47e7 fdbd 99c7 09bd 55f9 c2bc c415 3e3e
00000090: 9923 a63b 556e 13bb 331c 1b3e 0516 79bd
000000a0: a7a6 273e 3757 86be 7b8a 3cbe e4c9 663d
000000b0: 622e c33d 6ece 433e 5fb6 653e 3498 873c
000000c0: fd6e 463e 3afc b5bc 0544 a1be b5bb bb3d
000000d0: 19be 903e f796 ebbc 4f80 00be 2611 173e
000000e0: a6c6 e6bd 2738 51bd 7c24 893e 2668 83be
000000f0: 58d2 86be a81d 7abe 2f16 cf3e f48e e93e
00000100: dfa6 c8be c8ee 093d 03bb 643e 5531 5c3e
00000110: 4e44 c0be f907 eabe bdbf 1e3e 1048 36be
00000120: b69d 003c 8943 cf3d fd27 893e 916d 78be
00000130: 00e8 c4bd cb15 bf3d a551 4e3e 9494 b0bc
00000140: e67a 603d ab7a 0b3e 3d47 72bd 6ccf c8bb
00000150: 5ee2 78be c2fb e73c e510 683e d9a0 ccbd
00000160: e79c 283d 55d6 6d3e f98b dabd 5322 e5bd
00000170: bcc8 dd3d 9585 d8bd a48b 5e3d f183 cbbd
00000180: 2f9c 4abd 99c7 723e 2708 99bd b8ec 893c
00000190: b48a 853e 5a94 c03d 723a e1bd 5a81 b03d
000001a0: 86ab 013e 849d ae3e 8f40 313e 13e9 57bd
000001b0: abd9 123e 339c 5d3c 7cea 8abd 390b 36bd
000001c0: ce85 43be b943 9fbd a0bd 923e 9b08 143e
000001d0: 6686 a0bd e271 25be 51fc 0ebd 8989 4fbe
000001e0: c8a1 18be cd4f 08be f385 fc3c 43e7 833e
000001f0: 42ac 6bbe c2e2 e63c 73fc 2a3d 807c 29be
00000200: e30d d1bc 68fc 43be 2efb 42be 5bb6 cc3e
00000210: 99ac f23e fce0 f53c 26df 573e 7303 efbc
00000220: e0f6 08be aa12 433e a700 f6be be31 49bc
00000230: 6b82 503d c1c1 69bb 5d63 76be c96b 823e
00000240: 4e4c a6bd d313 08be 0b4f 253e bae3 73be
00000250: 8b5f bebd 186c 893e 2d7a 1b3e 4396 a93d
00000260: 5a9a 0cbe 0483 9fbe 984a 44bb c57a 3ebe
00000270: 8d94 0ebe 344e 213c 3fb1 02bd d133 dbbd
00000280: 108a bd3d c9dc d8b8 1cee b13e 83b7 74be
00000290: d4b6 9abc 75e8 55be f739 a6bb 9994 ab3d
000002a0: 5b3e 27be c910 423e b7a3 93be 38a5 debd
000002b0: b07b 9d3e 7449 a9be b557 333e cf38 a8be
000002c0: 8fd7 5a3d 2fb5 c43d f9cf 82bd c6e6 39be
000002d0: ff7b 29be 1dc7 6e3e 6747 b93d 6ddb b43e
000002e0: 854a 223e 61f2 87be 9253 ddbb bd37 e8bc
000002f0: e9be 103e a3e1 543d 3423 74be 8680 9a3e
00000300: ff43 893e db97 0b3d a367 b6bd 9f6e fe3d
00000310: 325e 233e 560e c23c 1f46 463d 6962 3cbe
00000320: 8a3b 6b3e b4f7 adbc 3179 81be 0f6d 0a3e
00000330: 1853 c73d e5f0 063d 0c01 fcbd d0ed 9fbe
00000340: ae3a 89bd a56a 49bd 7f8d 7ebe 2526 493e
00000350: 0e63 293d d002 823e eabc b1bd 0eb1 b13d
00000360: 5284 2b3d 68a9 8bbe e14d 843d 3a03 b53d
00000370: fc3f 3fbe dd4b 833d 2ca6 93bd 6f3f 0b3e
00000380: 46b3 d9be 10b4 68be 175c b23e f309 b7be
00000390: 5704 65be a8ea c53d 6021 613e 4bb1 913e
000003a0: 0636 b43c 6f64 d9bd 102c f73d 9094 ce3c
000003b0: b268 81be e2ab f2bd 95e3 823e 3400 9abe
000003c0: 6f94 e3bd 42da 77be 7c82 8c3c b5c2 7a3e
000003d0: d039 8cbe b459 083b 5f83 9c3e eaca 27be
000003e0: 4e20 f1bd 0da5 85be 859c 83bd 1067 a7be
000003f0: c82a b6bd 74f0 ae3d 39a8 31be c98e 273c
